<?xml version="1.0" ?>
<net name="torch-jit-export" version="11">
	<layers>
		<layer id="532" name="image" type="Parameter" version="opset1">
			<data shape="1,3,608,608" element_type="f32"/>
			<rt_info>
				<attribute name="old_api_map_element_type" version="0" value="f16"/>
			</rt_info>
			<output>
				<port id="0" precision="FP32" names="image">
					<dim>1</dim>
					<dim>3</dim>
					<dim>608</dim>
					<dim>608</dim>
					<rt_info>
						<attribute name="layout" version="0" layout="[N,C,H,W]"/>
					</rt_info>
				</port>
			</output>
		</layer>
		<layer id="0" name="140741407849307" type="Const" version="opset1">
			<data offset="0" size="4" shape="" element_type="f32"/>
			<output>
				<port id="0" precision="FP32"/>
			</output>
		</layer>
		<layer id="1" name="140751407947987" type="Const" version="opset1">
			<data offset="4" size="4" shape="" element_type="f32"/>
			<output>
				<port id="0" precision="FP32"/>
			</output>
		</layer>
		<layer id="2" name="140761408046748" type="Const" version="opset1">
			<data offset="0" size="4" shape="" element_type="f32"/>
			<output>
				<port id="0" precision="FP32"/>
			</output>
		</layer>
		<layer id="3" name="140771408147297" type="Const" version="opset1">
			<data offset="4" size="4" shape="" element_type="f32"/>
			<output>
				<port id="0" precision="FP32"/>
			</output>
		</layer>
		<layer id="4" name="138741387851539" type="Const" version="opset1">
			<data offset="8" size="4" shape="" element_type="f32"/>
			<output>
				<port id="0" precision="FP32"/>
			</output>
		</layer>
		<layer id="5" name="138751387947477" type="Const" version="opset1">
			<data offset="12" size="4" shape="" element_type="f32"/>
			<output>
				<port id="0" precision="FP32"/>
			</output>
		</layer>
		<layer id="6" name="138761388050333" type="Const" version="opset1">
			<data offset="8" size="4" shape="" element_type="f32"/>
			<output>
				<port id="0" precision="FP32"/>
			</output>
		</layer>
		<layer id="7" name="138771388150666" type="Const" version="opset1">
			<data offset="12" size="4" shape="" element_type="f32"/>
			<output>
				<port id="0" precision="FP32"/>
			</output>
		</layer>
		<layer id="8" name="132141321850198" type="Const" version="opset1">
			<data offset="16" size="4" shape="" element_type="f32"/>
			<output>
				<port id="0" precision="FP32"/>
			</output>
		</layer>
		<layer id="9" name="132151321951614" type="Const" version="opset1">
			<data offset="20" size="4" shape="" element_type="f32"/>
			<output>
				<port id="0" precision="FP32"/>
			</output>
		</layer>
		<layer id="10" name="132161322050510" type="Const" version="opset1">
			<data offset="16" size="4" shape="" element_type="f32"/>
			<output>
				<port id="0" precision="FP32"/>
			</output>
		</layer>
		<layer id="11" name="132171322148296" type="Const" version="opset1">
			<data offset="20" size="4" shape="" element_type="f32"/>
			<output>
				<port id="0" precision="FP32"/>
			</output>
		</layer>
		<layer id="12" name="124741247849271" type="Const" version="opset1">
			<data offset="24" size="4" shape="" element_type="f32"/>
			<output>
				<port id="0" precision="FP32"/>
			</output>
		</layer>
		<layer id="13" name="124751247948986" type="Const" version="opset1">
			<data offset="28" size="4" shape="" element_type="f32"/>
			<output>
				<port id="0" precision="FP32"/>
			</output>
		</layer>
		<layer id="14" name="124761248046211" type="Const" version="opset1">
			<data offset="24" size="4" shape="" element_type="f32"/>
			<output>
				<port id="0" precision="FP32"/>
			</output>
		</layer>
		<layer id="15" name="124771248152091" type="Const" version="opset1">
			<data offset="28" size="4" shape="" element_type="f32"/>
			<output>
				<port id="0" precision="FP32"/>
			</output>
		</layer>
		<layer id="16" name="136641366848398" type="Const" version="opset1">
			<data offset="32" size="4" shape="" element_type="f32"/>
			<output>
				<port id="0" precision="FP32"/>
			</output>
		</layer>
		<layer id="17" name="136651366948050" type="Const" version="opset1">
			<data offset="36" size="4" shape="" element_type="f32"/>
			<output>
				<port id="0" precision="FP32"/>
			</output>
		</layer>
		<layer id="18" name="136661367051797" type="Const" version="opset1">
			<data offset="32" size="4" shape="" element_type="f32"/>
			<output>
				<port id="0" precision="FP32"/>
			</output>
		</layer>
		<layer id="19" name="136671367149685" type="Const" version="opset1">
			<data offset="36" size="4" shape="" element_type="f32"/>
			<output>
				<port id="0" precision="FP32"/>
			</output>
		</layer>
		<layer id="20" name="139741397851185" type="Const" version="opset1">
			<data offset="40" size="4" shape="" element_type="f32"/>
			<output>
				<port id="0" precision="FP32"/>
			</output>
		</layer>
		<layer id="21" name="139751397948026" type="Const" version="opset1">
			<data offset="44" size="4" shape="" element_type="f32"/>
			<output>
				<port id="0" precision="FP32"/>
			</output>
		</layer>
		<layer id="22" name="139761398049292" type="Const" version="opset1">
			<data offset="40" size="4" shape="" element_type="f32"/>
			<output>
				<port id="0" precision="FP32"/>
			</output>
		</layer>
		<layer id="23" name="139771398146526" type="Const" version="opset1">
			<data offset="44" size="4" shape="" element_type="f32"/>
			<output>
				<port id="0" precision="FP32"/>
			</output>
		</layer>
		<layer id="24" name="128241282847798" type="Const" version="opset1">
			<data offset="48" size="4" shape="" element_type="f32"/>
			<output>
				<port id="0" precision="FP32"/>
			</output>
		</layer>
		<layer id="25" name="128251282947039" type="Const" version="opset1">
			<data offset="52" size="4" shape="" element_type="f32"/>
			<output>
				<port id="0" precision="FP32"/>
			</output>
		</layer>
		<layer id="26" name="128261283046319" type="Const" version="opset1">
			<data offset="48" size="4" shape="" element_type="f32"/>
			<output>
				<port id="0" precision="FP32"/>
			</output>
		</layer>
		<layer id="27" name="128271283151398" type="Const" version="opset1">
			<data offset="52" size="4" shape="" element_type="f32"/>
			<output>
				<port id="0" precision="FP32"/>
			</output>
		</layer>
		<layer id="28" name="181201812450732" type="Const" version="opset1">
			<data offset="56" size="8448" shape="1,2112,1,1" element_type="f32"/>
			<output>
				<port id="0" precision="FP32">
					<dim>1</dim>
					<dim>2112</dim>
					<dim>1</dim>
					<dim>1</dim>
				</port>
			</output>
		</layer>
		<layer id="29" name="181211812546277" type="Const" version="opset1">
			<data offset="8504" size="8448" shape="1,2112,1,1" element_type="f32"/>
			<output>
				<port id="0" precision="FP32">
					<dim>1</dim>
					<dim>2112</dim>
					<dim>1</dim>
					<dim>1</dim>
				</port>
			</output>
		</layer>
		<layer id="30" name="181221812650273" type="Const" version="opset1">
			<data offset="56" size="8448" shape="1,2112,1,1" element_type="f32"/>
			<output>
				<port id="0" precision="FP32">
					<dim>1</dim>
					<dim>2112</dim>
					<dim>1</dim>
					<dim>1</dim>
				</port>
			</output>
		</layer>
		<layer id="31" name="181231812746316" type="Const" version="opset1">
			<data offset="8504" size="8448" shape="1,2112,1,1" element_type="f32"/>
			<output>
				<port id="0" precision="FP32">
					<dim>1</dim>
					<dim>2112</dim>
					<dim>1</dim>
					<dim>1</dim>
				</port>
			</output>
		</layer>
		<layer id="32" name="124841248846595" type="Const" version="opset1">
			<data offset="16952" size="4" shape="" element_type="f32"/>
			<output>
				<port id="0" precision="FP32"/>
			</output>
		</layer>
		<layer id="33" name="124851248949667" type="Const" version="opset1">
			<data offset="16956" size="4" shape="" element_type="f32"/>
			<output>
				<port id="0" precision="FP32"/>
			</output>
		</layer>
		<layer id="34" name="124861249046001" type="Const" version="opset1">
			<data offset="16952" size="4" shape="" element_type="f32"/>
			<output>
				<port id="0" precision="FP32"/>
			</output>
		</layer>
		<layer id="35" name="124871249147168" type="Const" version="opset1">
			<data offset="16956" size="4" shape="" element_type="f32"/>
			<output>
				<port id="0" precision="FP32"/>
			</output>
		</layer>
		<layer id="36" name="131441314849364" type="Const" version="opset1">
			<data offset="16960" size="4" shape="" element_type="f32"/>
			<output>
				<port id="0" precision="FP32"/>
			</output>
		</layer>
		<layer id="37" name="131451314946310" type="Const" version="opset1">
			<data offset="16964" size="4" shape="" element_type="f32"/>
			<output>
				<port id="0" precision="FP32"/>
			</output>
		</layer>
		<layer id="38" name="131461315047723" type="Const" version="opset1">
			<data offset="16960" size="4" shape="" element_type="f32"/>
			<output>
				<port id="0" precision="FP32"/>
			</output>
		</layer>
		<layer id="39" name="131471315147342" type="Const" version="opset1">
			<data offset="16964" size="4" shape="" element_type="f32"/>
			<output>
				<port id="0" precision="FP32"/>
			</output>
		</layer>
		<layer id="40" name="136941369847753" type="Const" version="opset1">
			<data offset="40" size="4" shape="" element_type="f32"/>
			<output>
				<port id="0" precision="FP32"/>
			</output>
		</layer>
		<layer id="41" name="136951369950777" type="Const" version="opset1">
			<data offset="16968" size="4" shape="" element_type="f32"/>
			<output>
				<port id="0" precision="FP32"/>
			</output>
		</layer>
		<layer id="42" name="136961370049439" type="Const" version="opset1">
			<data offset="40" size="4" shape="" element_type="f32"/>
			<output>
				<port id="0" precision="FP32"/>
			</output>
		</layer>
		<layer id="43" name="136971370150978" type="Const" version="opset1">
			<data offset="16968" size="4" shape="" element_type="f32"/>
			<output>
				<port id="0" precision="FP32"/>
			</output>
		</layer>
		<layer id="44" name="134341343847111" type="Const" version="opset1">
			<data offset="16972" size="4" shape="" element_type="f32"/>
			<output>
				<port id="0" precision="FP32"/>
			</output>
		</layer>
		<layer id="45" name="134351343949031" type="Const" version="opset1">
			<data offset="16976" size="4" shape="" element_type="f32"/>
			<output>
				<port id="0" precision="FP32"/>
			</output>
		</layer>
		<layer id="46" name="134361344050738" type="Const" version="opset1">
			<data offset="16972" size="4" shape="" element_type="f32"/>
			<output>
				<port id="0" precision="FP32"/>
			</output>
		</layer>
		<layer id="47" name="134371344150636" type="Const" version="opset1">
			<data offset="16976" size="4" shape="" element_type="f32"/>
			<output>
				<port id="0" precision="FP32"/>
			</output>
		</layer>
		<layer id="48" name="181101811449889" type="Const" version="opset1">
			<data offset="16980" size="4992" shape="1,1248,1,1" element_type="f32"/>
			<output>
				<port id="0" precision="FP32">
					<dim>1</dim>
					<dim>1248</dim>
					<dim>1</dim>
					<dim>1</dim>
				</port>
			</output>
		</layer>
		<layer id="49" name="181111811546931" type="Const" version="opset1">
			<data offset="21972" size="4992" shape="1,1248,1,1" element_type="f32"/>
			<output>
				<port id="0" precision="FP32">
					<dim>1</dim>
					<dim>1248</dim>
					<dim>1</dim>
					<dim>1</dim>
				</port>
			</output>
		</layer>
		<layer id="50" name="181121811647615" type="Const" version="opset1">
			<data offset="16980" size="4992" shape="1,1248,1,1" element_type="f32"/>
			<output>
				<port id="0" precision="FP32">
					<dim>1</dim>
					<dim>1248</dim>
					<dim>1</dim>
					<dim>1</dim>
				</port>
			</output>
		</layer>
		<layer id="51" name="181131811751488" type="Const" version="opset1">
			<data offset="21972" size="4992" shape="1,1248,1,1" element_type="f32"/>
			<output>
				<port id="0" precision="FP32">
					<dim>1</dim>
					<dim>1248</dim>
					<dim>1</dim>
					<dim>1</dim>
				</port>
			</output>
		</layer>
		<layer id="52" name="144041440852208" type="Const" version="opset1">
			<data offset="26964" size="4" shape="" element_type="f32"/>
			<output>
				<port id="0" precision="FP32"/>
			</output>
		</layer>
		<layer id="53" name="144051440947288" type="Const" version="opset1">
			<data offset="26968" size="4" shape="" element_type="f32"/>
			<output>
				<port id="0" precision="FP32"/>
			</output>
		</layer>
		<layer id="54" name="144061441050057" type="Const" version="opset1">
			<data offset="26964" size="4" shape="" element_type="f32"/>
			<output>
				<port id="0" precision="FP32"/>
			</output>
		</layer>
		<layer id="55" name="144071441151341" type="Const" version="opset1">
			<data offset="26968" size="4" shape="" element_type="f32"/>
			<output>
				<port id="0" precision="FP32"/>
			</output>
		</layer>
		<layer id="56" name="142341423847603" type="Const" version="opset1">
			<data offset="26972" size="4" shape="" element_type="f32"/>
			<output>
				<port id="0" precision="FP32"/>
			</output>
		</layer>
		<layer id="57" name="142351423951455" type="Const" version="opset1">
			<data offset="26976" size="4" shape="" element_type="f32"/>
			<output>
				<port id="0" precision="FP32"/>
			</output>
		</layer>
		<layer id="58" name="142361424050270" type="Const" version="opset1">
			<data offset="26972" size="4" shape="" element_type="f32"/>
			<output>
				<port id="0" precision="FP32"/>
			</output>
		</layer>
		<layer id="59" name="142371424151860" type="Const" version="opset1">
			<data offset="26976" size="4" shape="" element_type="f32"/>
			<output>
				<port id="0" precision="FP32"/>
			</output>
		</layer>
		<layer id="60" name="128541285849046" type="Const" version="opset1">
			<data offset="26980" size="4" shape="" element_type="f32"/>
			<output>
				<port id="0" precision="FP32"/>
			</output>
		</layer>
		<layer id="61" name="128551285948734" type="Const" version="opset1">
			<data offset="26984" size="4" shape="" element_type="f32"/>
			<output>
				<port id="0" precision="FP32"/>
			</output>
		</layer>
		<layer id="62" name="128561286050669" type="Const" version="opset1">
			<data offset="26980" size="4" shape="" element_type="f32"/>
			<output>
				<port id="0" precision="FP32"/>
			</output>
		</layer>
		<layer id="63" name="128571286149811" type="Const" version="opset1">
			<data offset="26984" size="4" shape="" element_type="f32"/>
			<output>
				<port id="0" precision="FP32"/>
			</output>
		</layer>
		<layer id="64" name="140241402848707" type="Const" version="opset1">
			<data offset="40" size="4" shape="" element_type="f32"/>
			<output>
				<port id="0" precision="FP32"/>
			</output>
		</layer>
		<layer id="65" name="140251402950372" type="Const" version="opset1">
			<data offset="26988" size="4" shape="" element_type="f32"/>
			<output>
				<port id="0" precision="FP32"/>
			</output>
		</layer>
		<layer id="66" name="140261403045941" type="Const" version="opset1">
			<data offset="40" size="4" shape="" element_type="f32"/>
			<output>
				<port id="0" precision="FP32"/>
			</output>
		</layer>
		<layer id="67" name="140271403146529" type="Const" version="opset1">
			<data offset="26988" size="4" shape="" element_type="f32"/>
			<output>
				<port id="0" precision="FP32"/>
			</output>
		</layer>
		<layer id="68" name="132341323847642" type="Const" version="opset1">
			<data offset="26992" size="4" shape="" element_type="f32"/>
			<output>
				<port id="0" precision="FP32"/>
			</output>
		</layer>
		<layer id="69" name="132351323948380" type="Const" version="opset1">
			<data offset="26996" size="4" shape="" element_type="f32"/>
			<output>
				<port id="0" precision="FP32"/>
			</output>
		</layer>
		<layer id="70" name="132361324050255" type="Const" version="opset1">
			<data offset="26992" size="4" shape="" element_type="f32"/>
			<output>
				<port id="0" precision="FP32"/>
			</output>
		</layer>
		<layer id="71" name="132371324145911" type="Const" version="opset1">
			<data offset="26996" size="4" shape="" element_type="f32"/>
			<output>
				<port id="0" precision="FP32"/>
			</output>
		</layer>
		<layer id="72" name="181001810450615" type="Const" version="opset1">
			<data offset="27000" size="4992" shape="1,1248,1,1" element_type="f32"/>
			<output>
				<port id="0" precision="FP32">
					<dim>1</dim>
					<dim>1248</dim>
					<dim>1</dim>
					<dim>1</dim>
				</port>
			</output>
		</layer>
		<layer id="73" name="181011810547990" type="Const" version="opset1">
			<data offset="31992" size="4992" shape="1,1248,1,1" element_type="f32"/>
			<output>
				<port id="0" precision="FP32">
					<dim>1</dim>
					<dim>1248</dim>
					<dim>1</dim>
					<dim>1</dim>
				</port>
			</output>
		</layer>
		<layer id="74" name="181021810651788" type="Const" version="opset1">
			<data offset="27000" size="4992" shape="1,1248,1,1" element_type="f32"/>
			<output>
				<port id="0" precision="FP32">
					<dim>1</dim>
					<dim>1248</dim>
					<dim>1</dim>
					<dim>1</dim>
				</port>
			</output>
		</layer>
		<layer id="75" name="181031810751056" type="Const" version="opset1">
			<data offset="31992" size="4992" shape="1,1248,1,1" element_type="f32"/>
			<output>
				<port id="0" precision="FP32">
					<dim>1</dim>
					<dim>1248</dim>
					<dim>1</dim>
					<dim>1</dim>
				</port>
			</output>
		</layer>
		<layer id="76" name="142441424849241" type="Const" version="opset1">
			<data offset="36984" size="4" shape="" element_type="f32"/>
			<output>
				<port id="0" precision="FP32"/>
			</output>
		</layer>
		<layer id="77" name="142451424947042" type="Const" version="opset1">
			<data offset="36988" size="4" shape="" element_type="f32"/>
			<output>
				<port id="0" precision="FP32"/>
			</output>
		</layer>
		<layer id="78" name="142461425049463" type="Const" version="opset1">
			<data offset="36984" size="4" shape="" element_type="f32"/>
			<output>
				<port id="0" precision="FP32"/>
			</output>
		</layer>
		<layer id="79" name="142471425149985" type="Const" version="opset1">
			<data offset="36988" size="4" shape="" element_type="f32"/>
			<output>
				<port id="0" precision="FP32"/>
			</output>
		</layer>
		<layer id="80" name="153441534850822" type="Const" version="opset1">
			<data offset="36992" size="4" shape="" element_type="f32"/>
			<output>
				<port id="0" precision="FP32"/>
			</output>
		</layer>
		<layer id="81" name="153451534947204" type="Const" version="opset1">
			<data offset="36996" size="4" shape="" element_type="f32"/>
			<output>
				<port id="0" precision="FP32"/>
			</output>
		</layer>
		<layer id="82" name="153461535051251" type="Const" version="opset1">
			<data offset="36992" size="4" shape="" element_type="f32"/>
			<output>
				<port id="0" precision="FP32"/>
			</output>
		</layer>
		<layer id="83" name="153471535149427" type="Const" version="opset1">
			<data offset="36996" size="4" shape="" element_type="f32"/>
			<output>
				<port id="0" precision="FP32"/>
			</output>
		</layer>
		<layer id="84" name="135441354852064" type="Const" version="opset1">
			<data offset="37000" size="4" shape="" element_type="f32"/>
			<output>
				<port id="0" precision="FP32"/>
			</output>
		</layer>
		<layer id="85" name="135451354951599" type="Const" version="opset1">
			<data offset="37004" size="4" shape="" element_type="f32"/>
			<output>
				<port id="0" precision="FP32"/>
			</output>
		</layer>
		<layer id="86" name="135461355046286" type="Const" version="opset1">
			<data offset="37000" size="4" shape="" element_type="f32"/>
			<output>
				<port id="0" precision="FP32"/>
			</output>
		</layer>
		<layer id="87" name="135471355149508" type="Const" version="opset1">
			<data offset="37004" size="4" shape="" element_type="f32"/>
			<output>
				<port id="0" precision="FP32"/>
			</output>
		</layer>
		<layer id="88" name="149041490847312" type="Const" version="opset1">
			<data offset="40" size="4" shape="" element_type="f32"/>
			<output>
				<port id="0" precision="FP32"/>
			</output>
		</layer>
		<layer id="89" name="149051490948998" type="Const" version="opset1">
			<data offset="37008" size="4" shape="" element_type="f32"/>
			<output>
				<port id="0" precision="FP32"/>
			</output>
		</layer>
		<layer id="90" name="149061491050867" type="Const" version="opset1">
			<data offset="40" size="4" shape="" element_type="f32"/>
			<output>
				<port id="0" precision="FP32"/>
			</output>
		</layer>
		<layer id="91" name="149071491147132" type="Const" version="opset1">
			<data offset="37008" size="4" shape="" element_type="f32"/>
			<output>
				<port id="0" precision="FP32"/>
			</output>
		</layer>
		<layer id="92" name="153741537851152" type="Const" version="opset1">
			<data offset="37012" size="4" shape="" element_type="f32"/>
			<output>
				<port id="0" precision="FP32"/>
			</output>
		</layer>
		<layer id="93" name="153751537946901" type="Const" version="opset1">
			<data offset="37016" size="4" shape="" element_type="f32"/>
			<output>
				<port id="0" precision="FP32"/>
			</output>
		</layer>
		<layer id="94" name="153761538046298" type="Const" version="opset1">
			<data offset="37012" size="4" shape="" element_type="f32"/>
			<output>
				<port id="0" precision="FP32"/>
			</output>
		</layer>
		<layer id="95" name="153771538146847" type="Const" version="opset1">
			<data offset="37016" size="4" shape="" element_type="f32"/>
			<output>
				<port id="0" precision="FP32"/>
			</output>
		</layer>
		<layer id="96" name="180901809447954" type="Const" version="opset1">
			<data offset="37020" size="4992" shape="1,1248,1,1" element_type="f32"/>
			<output>
				<port id="0" precision="FP32">
					<dim>1</dim>
					<dim>1248</dim>
					<dim>1</dim>
					<dim>1</dim>
				</port>
			</output>
		</layer>
		<layer id="97" name="180911809550099" type="Const" version="opset1">
			<data offset="42012" size="4992" shape="1,1248,1,1" element_type="f32"/>
			<output>
				<port id="0" precision="FP32">
					<dim>1</dim>
					<dim>1248</dim>
					<dim>1</dim>
					<dim>1</dim>
				</port>
			</output>
		</layer>
		<layer id="98" name="180921809652139" type="Const" version="opset1">
			<data offset="37020" size="4992" shape="1,1248,1,1" element_type="f32"/>
			<output>
				<port id="0" precision="FP32">
					<dim>1</dim>
					<dim>1248</dim>
					<dim>1</dim>
					<dim>1</dim>
				</port>
			</output>
		</layer>
		<layer id="99" name="180931809750555" type="Const" version="opset1">
			<data offset="42012" size="4992" shape="1,1248,1,1" element_type="f32"/>
			<output>
				<port id="0" precision="FP32">
					<dim>1</dim>
					<dim>1248</dim>
					<dim>1</dim>
					<dim>1</dim>
				</port>
			</output>
		</layer>
		<layer id="100" name="153541535846505" type="Const" version="opset1">
			<data offset="47004" size="4" shape="" element_type="f32"/>
			<output>
				<port id="0" precision="FP32"/>
			</output>
		</layer>
		<layer id="101" name="153551535946415" type="Const" version="opset1">
			<data offset="47008" size="4" shape="" element_type="f32"/>
			<output>
				<port id="0" precision="FP32"/>
			</output>
		</layer>
		<layer id="102" name="153561536050498" type="Const" version="opset1">
			<data offset="47004" size="4" shape="" element_type="f32"/>
			<output>
				<port id="0" precision="FP32"/>
			</output>
		</layer>
		<layer id="103" name="153571536146457" type="Const" version="opset1">
			<data offset="47008" size="4" shape="" element_type="f32"/>
			<output>
				<port id="0" precision="FP32"/>
			</output>
		</layer>
		<layer id="104" name="144641446850336" type="Const" version="opset1">
			<data offset="47012" size="4" shape="" element_type="f32"/>
			<output>
				<port id="0" precision="FP32"/>
			</output>
		</layer>
		<layer id="105" name="144651446946514" type="Const" version="opset1">
			<data offset="47016" size="4" shape="" element_type="f32"/>
			<output>
				<port id="0" precision="FP32"/>
			</output>
		</layer>
		<layer id="106" name="144661447051545" type="Const" version="opset1">
			<data offset="47012" size="4" shape="" element_type="f32"/>
			<output>
				<port id="0" precision="FP32"/>
			</output>
		</layer>
		<layer id="107" name="144671447151200" type="Const" version="opset1">
			<data offset="47016" size="4" shape="" element_type="f32"/>
			<output>
				<port id="0" precision="FP32"/>
			</output>
		</layer>
		<layer id="108" name="124341243849655" type="Const" version="opset1">
			<data offset="47020" size="4" shape="" element_type="f32"/>
			<output>
				<port id="0" precision="FP32"/>
			</output>
		</layer>
		<layer id="109" name="124351243947756" type="Const" version="opset1">
			<data offset="47024" size="4" shape="" element_type="f32"/>
			<output>
				<port id="0" precision="FP32"/>
			</output>
		</layer>
		<layer id="110" name="124361244051659" type="Const" version="opset1">
			<data offset="47020" size="4" shape="" element_type="f32"/>
			<output>
				<port id="0" precision="FP32"/>
			</output>
		</layer>
		<layer id="111" name="124371244150849" type="Const" version="opset1">
			<data offset="47024" size="4" shape="" element_type="f32"/>
			<output>
				<port id="0" precision="FP32"/>
			</output>
		</layer>
		<layer id="112" name="140041400850114" type="Const" version="opset1">
			<data offset="40" size="4" shape="" element_type="f32"/>
			<output>
				<port id="0" precision="FP32"/>
			</output>
		</layer>
		<layer id="113" name="140051400947000" type="Const" version="opset1">
			<data offset="47028" size="4" shape="" element_type="f32"/>
			<output>
				<port id="0" precision="FP32"/>
			</output>
		</layer>
		<layer id="114" name="140061401048608" type="Const" version="opset1">
			<data offset="40" size="4" shape="" element_type="f32"/>
			<output>
				<port id="0" precision="FP32"/>
			</output>
		</layer>
		<layer id="115" name="140071401146112" type="Const" version="opset1">
			<data offset="47028" size="4" shape="" element_type="f32"/>
			<output>
				<port id="0" precision="FP32"/>
			</output>
		</layer>
		<layer id="116" name="153641536850588" type="Const" version="opset1">
			<data offset="47032" size="4" shape="" element_type="f32"/>
			<output>
				<port id="0" precision="FP32"/>
			</output>
		</layer>
		<layer id="117" name="153651536950633" type="Const" version="opset1">
			<data offset="47036" size="4" shape="" element_type="f32"/>
			<output>
				<port id="0" precision="FP32"/>
			</output>
		</layer>
		<layer id="118" name="153661537048782" type="Const" version="opset1">
			<data offset="47032" size="4" shape="" element_type="f32"/>
			<output>
				<port id="0" precision="FP32"/>
			</output>
		</layer>
		<layer id="119" name="153671537147093" type="Const" version="opset1">
			<data offset="47036" size="4" shape="" element_type="f32"/>
			<output>
				<port id="0" precision="FP32"/>
			</output>
		</layer>
		<layer id="120" name="180801808448044" type="Const" version="opset1">
			<data offset="47040" size="4992" shape="1,1248,1,1" element_type="f32"/>
			<output>
				<port id="0" precision="FP32">
					<dim>1</dim>
					<dim>1248</dim>
					<dim>1</dim>
					<dim>1</dim>
				</port>
			</output>
		</layer>
		<layer id="121" name="180811808547666" type="Const" version="opset1">
			<data offset="52032" size="4992" shape="1,1248,1,1" element_type="f32"/>
			<output>
				<port id="0" precision="FP32">
					<dim>1</dim>
					<dim>1248</dim>
					<dim>1</dim>
					<dim>1</dim>
				</port>
			</output>
		</layer>
		<layer id="122" name="180821808647282" type="Const" version="opset1">
			<data offset="47040" size="4992" shape="1,1248,1,1" element_type="f32"/>
			<output>
				<port id="0" precision="FP32">
					<dim>1</dim>
					<dim>1248</dim>
					<dim>1</dim>
					<dim>1</dim>
				</port>
			</output>
		</layer>
		<layer id="123" name="180831808749055" type="Const" version="opset1">
			<data offset="52032" size="4992" shape="1,1248,1,1" element_type="f32"/>
			<output>
				<port id="0" precision="FP32">
					<dim>1</dim>
					<dim>1248</dim>
					<dim>1</dim>
					<dim>1</dim>
				</port>
			</output>
		</layer>
		<layer id="124" name="144741447846463" type="Const" version="opset1">
			<data offset="57024" size="4" shape="" element_type="f32"/>
			<output>
				<port id="0" precision="FP32"/>
			</output>
		</layer>
		<layer id="125" name="144751447951041" type="Const" version="opset1">
			<data offset="57028" size="4" shape="" element_type="f32"/>
			<output>
				<port id="0" precision="FP32"/>
			</output>
		</layer>
		<layer id="126" name="144761448050717" type="Const" version="opset1">
			<data offset="57024" size="4" shape="" element_type="f32"/>
			<output>
				<port id="0" precision="FP32"/>
			</output>
		</layer>
		<layer id="127" name="144771448147432" type="Const" version="opset1">
			<data offset="57028" size="4" shape="" element_type="f32"/>
			<output>
				<port id="0" precision="FP32"/>
			</output>
		</layer>
		<layer id="128" name="129941299850234" type="Const" version="opset1">
			<data offset="57032" size="4" shape="" element_type="f32"/>
			<output>
				<port id="0" precision="FP32"/>
			</output>
		</layer>
		<layer id="129" name="129951299948632" type="Const" version="opset1">
			<data offset="57036" size="4" shape="" element_type="f32"/>
			<output>
				<port id="0" precision="FP32"/>
			</output>
		</layer>
		<layer id="130" name="129961300051485" type="Const" version="opset1">
			<data offset="57032" size="4" shape="" element_type="f32"/>
			<output>
				<port id="0" precision="FP32"/>
			</output>
		</layer>
		<layer id="131" name="129971300148449" type="Const" version="opset1">
			<data offset="57036" size="4" shape="" element_type="f32"/>
			<output>
				<port id="0" precision="FP32"/>
			</output>
		</layer>
		<layer id="132" name="134441344846880" type="Const" version="opset1">
			<data offset="57040" size="4" shape="" element_type="f32"/>
			<output>
				<port id="0" precision="FP32"/>
			</output>
		</layer>
		<layer id="133" name="134451344947564" type="Const" version="opset1">
			<data offset="57044" size="4" shape="" element_type="f32"/>
			<output>
				<port id="0" precision="FP32"/>
			</output>
		</layer>
		<layer id="134" name="134461345051059" type="Const" version="opset1">
			<data offset="57040" size="4" shape="" element_type="f32"/>
			<output>
				<port id="0" precision="FP32"/>
			</output>
		</layer>
		<layer id="135" name="134471345149784" type="Const" version="opset1">
			<data offset="57044" size="4" shape="" element_type="f32"/>
			<output>
				<port id="0" precision="FP32"/>
			</output>
		</layer>
		<layer id="136" name="123941239847651" type="Const" version="opset1">
			<data offset="40" size="4" shape="" element_type="f32"/>
			<output>
				<port id="0" precision="FP32"/>
			</output>
		</layer>
		<layer id="137" name="123951239951737" type="Const" version="opset1">
			<data offset="57048" size="4" shape="" element_type="f32"/>
			<output>
				<port id="0" precision="FP32"/>
			</output>
		</layer>
		<layer id="138" name="123961240045899" type="Const" version="opset1">
			<data offset="40" size="4" shape="" element_type="f32"/>
			<output>
				<port id="0" precision="FP32"/>
			</output>
		</layer>
		<layer id="139" name="123971240146637" type="Const" version="opset1">
			<data offset="57048" size="4" shape="" element_type="f32"/>
			<output>
				<port id="0" precision="FP32"/>
			</output>
		</layer>
		<layer id="140" name="132041320848500" type="Const" version="opset1">
			<data offset="57052" size="4" shape="" element_type="f32"/>
			<output>
				<port id="0" precision="FP32"/>
			</output>
		</layer>
		<layer id="141" name="132051320948194" type="Const" version="opset1">
			<data offset="57056" size="4" shape="" element_type="f32"/>
			<output>
				<port id="0" precision="FP32"/>
			</output>
		</layer>
		<layer id="142" name="132061321046754" type="Const" version="opset1">
			<data offset="57052" size="4" shape="" element_type="f32"/>
			<output>
				<port id="0" precision="FP32"/>
			</output>
		</layer>
		<layer id="143" name="132071321151533" type="Const" version="opset1">
			<data offset="57056" size="4" shape="" element_type="f32"/>
			<output>
				<port id="0" precision="FP32"/>
			</output>
		</layer>
		<layer id="144" name="180701807446424" type="Const" version="opset1">
			<data offset="57060" size="4992" shape="1,1248,1,1" element_type="f32"/>
			<output>
				<port id="0" precision="FP32">
					<dim>1</dim>
					<dim>1248</dim>
					<dim>1</dim>
					<dim>1</dim>
				</port>
			</output>
		</layer>
		<layer id="145" name="180711807546025" type="Const" version="opset1">
			<data offset="62052" size="4992" shape="1,1248,1,1" element_type="f32"/>
			<output>
				<port id="0" precision="FP32">
					<dim>1</dim>
					<dim>1248</dim>
					<dim>1</dim>
					<dim>1</dim>
				</port>
			</output>
		</layer>
		<layer id="146" name="180721807646502" type="Const" version="opset1">
			<data offset="57060" size="4992" shape="1,1248,1,1" element_type="f32"/>
			<output>
				<port id="0" precision="FP32">
					<dim>1</dim>
					<dim>1248</dim>
					<dim>1</dim>
					<dim>1</dim>
				</port>
			</output>
		</layer>
		<layer id="147" name="180731807750357" type="Const" version="opset1">
			<data offset="62052" size="4992" shape="1,1248,1,1" element_type="f32"/>
			<output>
				<port id="0" precision="FP32">
					<dim>1</dim>
					<dim>1248</dim>
					<dim>1</dim>
					<dim>1</dim>
				</port>
			</output>
		</layer>
		<layer id="148" name="130041300848731" type="Const" version="opset1">
			<data offset="67044" size="4" shape="" element_type="f32"/>
			<output>
				<port id="0" precision="FP32"/>
			</output>
		</layer>
		<layer id="149" name="130051300948410" type="Const" version="opset1">
			<data offset="67048" size="4" shape="" element_type="f32"/>
			<output>
				<port id="0" precision="FP32"/>
			</output>
		</layer>
		<layer id="150" name="130061301046736" type="Const" version="opset1">
			<data offset="67044" size="4" shape="" element_type="f32"/>
			<output>
				<port id="0" precision="FP32"/>
			</output>
		</layer>
		<layer id="151" name="130071301152145" type="Const" version="opset1">
			<data offset="67048" size="4" shape="" element_type="f32"/>
			<output>
				<port id="0" precision="FP32"/>
			</output>
		</layer>
		<layer id="152" name="143441434852205" type="Const" version="opset1">
			<data offset="67052" size="4" shape="" element_type="f32"/>
			<output>
				<port id="0" precision="FP32"/>
			</output>
		</layer>
		<layer id="153" name="143451434952343" type="Const" version="opset1">
			<data offset="67056" size="4" shape="" element_type="f32"/>
			<output>
				<port id="0" precision="FP32"/>
			</output>
		</layer>
		<layer id="154" name="143461435050294" type="Const" version="opset1">
			<data offset="67052" size="4" shape="" element_type="f32"/>
			<output>
				<port id="0" precision="FP32"/>
			</output>
		</layer>
		<layer id="155" name="143471435147555" type="Const" version="opset1">
			<data offset="67056" size="4" shape="" element_type="f32"/>
			<output>
				<port id="0" precision="FP32"/>
			</output>
		</layer>
		<layer id="156" name="148041480850543" type="Const" version="opset1">
			<data offset="40" size="4" shape="" element_type="f32"/>
			<output>
				<port id="0" precision="FP32"/>
			</output>
		</layer>
		<layer id="157" name="148051480946634" type="Const" version="opset1">
			<data offset="67060" size="4" shape="" element_type="f32"/>
			<output>
				<port id="0" precision="FP32"/>
			</output>
		</layer>
		<layer id="158" name="148061481051803" type="Const" version="opset1">
			<data offset="40" size="4" shape="" element_type="f32"/>
			<output>
				<port id="0" precision="FP32"/>
			</output>
		</layer>
		<layer id="159" name="148071481151263" type="Const" version="opset1">
			<data offset="67060" size="4" shape="" element_type="f32"/>
			<output>
				<port id="0" precision="FP32"/>
			</output>
		</layer>
		<layer id="160" name="133741337849358" type="Const" version="opset1">
			<data offset="67064" size="4" shape="" element_type="f32"/>
			<output>
				<port id="0" precision="FP32"/>
			</output>
		</layer>
		<layer id="161" name="133751337949136" type="Const" version="opset1">
			<data offset="67068" size="4" shape="" element_type="f32"/>
			<output>
				<port id="0" precision="FP32"/>
			</output>
		</layer>
		<layer id="162" name="133761338048287" type="Const" version="opset1">
			<data offset="67064" size="4" shape="" element_type="f32"/>
			<output>
				<port id="0" precision="FP32"/>
			</output>
		</layer>
		<layer id="163" name="133771338148272" type="Const" version="opset1">
			<data offset="67068" size="4" shape="" element_type="f32"/>
			<output>
				<port id="0" precision="FP32"/>
			</output>
		</layer>
		<layer id="164" name="180601806450261" type="Const" version="opset1">
			<data offset="67072" size="2880" shape="1,720,1,1" element_type="f32"/>
			<output>
				<port id="0" precision="FP32">
					<dim>1</dim>
					<dim>720</dim>
					<dim>1</dim>
					<dim>1</dim>
				</port>
			</output>
		</layer>
		<layer id="165" name="180611806548002" type="Const" version="opset1">
			<data offset="69952" size="2880" shape="1,720,1,1" element_type="f32"/>
			<output>
				<port id="0" precision="FP32">
					<dim>1</dim>
					<dim>720</dim>
					<dim>1</dim>
					<dim>1</dim>
				</port>
			</output>
		</layer>
		<layer id="166" name="180621806646829" type="Const" version="opset1">
			<data offset="67072" size="2880" shape="1,720,1,1" element_type="f32"/>
			<output>
				<port id="0" precision="FP32">
					<dim>1</dim>
					<dim>720</dim>
					<dim>1</dim>
					<dim>1</dim>
				</port>
			</output>
		</layer>
		<layer id="167" name="180631806746208" type="Const" version="opset1">
			<data offset="69952" size="2880" shape="1,720,1,1" element_type="f32"/>
			<output>
				<port id="0" precision="FP32">
					<dim>1</dim>
					<dim>720</dim>
					<dim>1</dim>
					<dim>1</dim>
				</port>
			</output>
		</layer>
		<layer id="168" name="130641306850942" type="Const" version="opset1">
			<data offset="72832" size="4" shape="" element_type="f32"/>
			<output>
				<port id="0" precision="FP32"/>
			</output>
		</layer>
		<layer id="169" name="130651306951002" type="Const" version="opset1">
			<data offset="72836" size="4" shape="" element_type="f32"/>
			<output>
				<port id="0" precision="FP32"/>
			</output>
		</layer>
		<layer id="170" name="130661307051134" type="Const" version="opset1">
			<data offset="72832" size="4" shape="" element_type="f32"/>
			<output>
				<port id="0" precision="FP32"/>
			</output>
		</layer>
		<layer id="171" name="130671307150306" type="Const" version="opset1">
			<data offset="72836" size="4" shape="" element_type="f32"/>
			<output>
				<port id="0" precision="FP32"/>
			</output>
		</layer>
		<layer id="172" name="143041430848827" type="Const" version="opset1">
			<data offset="72840" size="4" shape="" element_type="f32"/>
			<output>
				<port id="0" precision="FP32"/>
			</output>
		</layer>
		<layer id="173" name="143051430952115" type="Const" version="opset1">
			<data offset="72844" size="4" shape="" element_type="f32"/>
			<output>
				<port id="0" precision="FP32"/>
			</output>
		</layer>
		<layer id="174" name="143061431047834" type="Const" version="opset1">
			<data offset="72840" size="4" shape="" element_type="f32"/>
			<output>
				<port id="0" precision="FP32"/>
			</output>
		</layer>
		<layer id="175" name="143071431150825" type="Const" version="opset1">
			<data offset="72844" size="4" shape="" element_type="f32"/>
			<output>
				<port id="0" precision="FP32"/>
			</output>
		</layer>
		<layer id="176" name="137841378850393" type="Const" version="opset1">
			<data offset="72848" size="4" shape="" element_type="f32"/>
			<output>
				<port id="0" precision="FP32"/>
			</output>
		</layer>
		<layer id="177" name="137851378951914" type="Const" version="opset1">
			<data offset="72852" size="4" shape="" element_type="f32"/>
			<output>
				<port id="0" precision="FP32"/>
			</output>
		</layer>
		<layer id="178" name="137861379048155" type="Const" version="opset1">
			<data offset="72848" size="4" shape="" element_type="f32"/>
			<output>
				<port id="0" precision="FP32"/>
			</output>
		</layer>
		<layer id="179" name="137871379148764" type="Const" version="opset1">
			<data offset="72852" size="4" shape="" element_type="f32"/>
			<output>
				<port id="0" precision="FP32"/>
			</output>
		</layer>
		<layer id="180" name="129041290848650" type="Const" version="opset1">
			<data offset="40" size="4" shape="" element_type="f32"/>
			<output>
				<port id="0" precision="FP32"/>
			</output>
		</layer>
		<layer id="181" name="129051290952292" type="Const" version="opset1">
			<data offset="72856" size="4" shape="" element_type="f32"/>
			<output>
				<port id="0" precision="FP32"/>
			</output>
		</layer>
		<layer id="182" name="129061291047231" type="Const" version="opset1">
			<data offset="40" size="4" shape="" element_type="f32"/>
			<output>
				<port id="0" precision="FP32"/>
			</output>
		</layer>
		<layer id="183" name="129071291151668" type="Const" version="opset1">
			<data offset="72856" size="4" shape="" element_type="f32"/>
			<output>
				<port id="0" precision="FP32"/>
			</output>
		</layer>
		<layer id="184" name="150341503852358" type="Const" version="opset1">
			<data offset="72860" size="4" shape="" element_type="f32"/>
			<output>
				<port id="0" precision="FP32"/>
			</output>
		</layer>
		<layer id="185" name="150351503946229" type="Const" version="opset1">
			<data offset="72864" size="4" shape="" element_type="f32"/>
			<output>
				<port id="0" precision="FP32"/>
			</output>
		</layer>
		<layer id="186" name="150361504049856" type="Const" version="opset1">
			<data offset="72860" size="4" shape="" element_type="f32"/>
			<output>
				<port id="0" precision="FP32"/>
			</output>
		</layer>
		<layer id="187" name="150371504151083" type="Const" version="opset1">
			<data offset="72864" size="4" shape="" element_type="f32"/>
			<output>
				<port id="0" precision="FP32"/>
			</output>
		</layer>
		<layer id="188" name="180401804450519" type="Const" version="opset1">
			<data offset="72868" size="2880" shape="1,720,1,1" element_type="f32"/>
			<output>
				<port id="0" precision="FP32">
					<dim>1</dim>
					<dim>720</dim>
					<dim>1</dim>
					<dim>1</dim>
				</port>
			</output>
		</layer>
		<layer id="189" name="180411804551518" type="Const" version="opset1">
			<data offset="75748" size="2880" shape="1,720,1,1" element_type="f32"/>
			<output>
				<port id="0" precision="FP32">
					<dim>1</dim>
					<dim>720</dim>
					<dim>1</dim>
					<dim>1</dim>
				</port>
			</output>
		</layer>
		<layer id="190" name="180421804652337" type="Const" version="opset1">
			<data offset="72868" size="2880" shape="1,720,1,1" element_type="f32"/>
			<output>
				<port id="0" precision="FP32">
					<dim>1</dim>
					<dim>720</dim>
					<dim>1</dim>
					<dim>1</dim>
				</port>
			</output>
		</layer>
		<layer id="191" name="180431804750162" type="Const" version="opset1">
			<data offset="75748" size="2880" shape="1,720,1,1" element_type="f32"/>
			<output>
				<port id="0" precision="FP32">
					<dim>1</dim>
					<dim>720</dim>
					<dim>1</dim>
					<dim>1</dim>
				</port>
			</output>
		</layer>
		<layer id="192" name="143141431848977" type="Const" version="opset1">
			<data offset="78628" size="4" shape="" element_type="f32"/>
			<output>
				<port id="0" precision="FP32"/>
			</output>
		</layer>
		<layer id="193" name="143151431946139" type="Const" version="opset1">
			<data offset="78632" size="4" shape="" element_type="f32"/>
			<output>
				<port id="0" precision="FP32"/>
			</output>
		</layer>
		<layer id="194" name="143161432051578" type="Const" version="opset1">
			<data offset="78628" size="4" shape="" element_type="f32"/>
			<output>
				<port id="0" precision="FP32"/>
			</output>
		</layer>
		<layer id="195" name="143171432150750" type="Const" version="opset1">
			<data offset="78632" size="4" shape="" element_type="f32"/>
			<output>
				<port id="0" precision="FP32"/>
			</output>
		</layer>
		<layer id="196" name="137241372849208" type="Const" version="opset1">
			<data offset="78636" size="4" shape="" element_type="f32"/>
			<output>
				<port id="0" precision="FP32"/>
			</output>
		</layer>
		<layer id="197" name="137251372952289" type="Const" version="opset1">
			<data offset="78640" size="4" shape="" element_type="f32"/>
			<output>
				<port id="0" precision="FP32"/>
			</output>
		</layer>
		<layer id="198" name="137261373049643" type="Const" version="opset1">
			<data offset="78636" size="4" shape="" element_type="f32"/>
			<output>
				<port id="0" precision="FP32"/>
			</output>
		</layer>
		<layer id="199" name="137271373146241" type="Const" version="opset1">
			<data offset="78640" size="4" shape="" element_type="f32"/>
			<output>
				<port id="0" precision="FP32"/>
			</output>
		</layer>
		<layer id="200" name="151241512848716" type="Const" version="opset1">
			<data offset="78644" size="4" shape="" element_type="f32"/>
			<output>
				<port id="0" precision="FP32"/>
			</output>
		</layer>
		<layer id="201" name="151251512949028" type="Const" version="opset1">
			<data offset="78648" size="4" shape="" element_type="f32"/>
			<output>
				<port id="0" precision="FP32"/>
			</output>
		</layer>
		<layer id="202" name="151261513047150" type="Const" version="opset1">
			<data offset="78644" size="4" shape="" element_type="f32"/>
			<output>
				<port id="0" precision="FP32"/>
			</output>
		</layer>
		<layer id="203" name="151271513152217" type="Const" version="opset1">
			<data offset="78648" size="4" shape="" element_type="f32"/>
			<output>
				<port id="0" precision="FP32"/>
			</output>
		</layer>
		<layer id="204" name="129241292849001" type="Const" version="opset1">
			<data offset="40" size="4" shape="" element_type="f32"/>
			<output>
				<port id="0" precision="FP32"/>
			</output>
		</layer>
		<layer id="205" name="129251292948035" type="Const" version="opset1">
			<data offset="78652" size="4" shape="" element_type="f32"/>
			<output>
				<port id="0" precision="FP32"/>
			</output>
		</layer>
		<layer id="206" name="129261293046943" type="Const" version="opset1">
			<data offset="40" size="4" shape="" element_type="f32"/>
			<output>
				<port id="0" precision="FP32"/>
			</output>
		</layer>
		<layer id="207" name="129271293145923" type="Const" version="opset1">
			<data offset="78652" size="4" shape="" element_type="f32"/>
			<output>
				<port id="0" precision="FP32"/>
			</output>
		</layer>
		<layer id="208" name="130341303846610" type="Const" version="opset1">
			<data offset="78656" size="4" shape="" element_type="f32"/>
			<output>
				<port id="0" precision="FP32"/>
			</output>
		</layer>
		<layer id="209" name="130351303949121" type="Const" version="opset1">
			<data offset="78660" size="4" shape="" element_type="f32"/>
			<output>
				<port id="0" precision="FP32"/>
			</output>
		</layer>
		<layer id="210" name="130361304051323" type="Const" version="opset1">
			<data offset="78656" size="4" shape="" element_type="f32"/>
			<output>
				<port id="0" precision="FP32"/>
			</output>
		</layer>
		<layer id="211" name="130371304149502" type="Const" version="opset1">
			<data offset="78660" size="4" shape="" element_type="f32"/>
			<output>
				<port id="0" precision="FP32"/>
			</output>
		</layer>
		<layer id="212" name="180301803446094" type="Const" version="opset1">
			<data offset="78664" size="2880" shape="1,720,1,1" element_type="f32"/>
			<output>
				<port id="0" precision="FP32">
					<dim>1</dim>
					<dim>720</dim>
					<dim>1</dim>
					<dim>1</dim>
				</port>
			</output>
		</layer>
		<layer id="213" name="180311803546373" type="Const" version="opset1">
			<data offset="81544" size="2880" shape="1,720,1,1" element_type="f32"/>
			<output>
				<port id="0" precision="FP32">
					<dim>1</dim>
					<dim>720</dim>
					<dim>1</dim>
					<dim>1</dim>
				</port>
			</output>
		</layer>
		<layer id="214" name="180321803651716" type="Const" version="opset1">
			<data offset="78664" size="2880" shape="1,720,1,1" element_type="f32"/>
			<output>
				<port id="0" precision="FP32">
					<dim>1</dim>
					<dim>720</dim>
					<dim>1</dim>
					<dim>1</dim>
				</port>
			</output>
		</layer>
		<layer id="215" name="180331803747192" type="Const" version="opset1">
			<data offset="81544" size="2880" shape="1,720,1,1" element_type="f32"/>
			<output>
				<port id="0" precision="FP32">
					<dim>1</dim>
					<dim>720</dim>
					<dim>1</dim>
					<dim>1</dim>
				</port>
			</output>
		</layer>
		<layer id="216" name="137341373846301" type="Const" version="opset1">
			<data offset="84424" size="4" shape="" element_type="f32"/>
			<output>
				<port id="0" precision="FP32"/>
			</output>
		</layer>
		<layer id="217" name="137351373947267" type="Const" version="opset1">
			<data offset="84428" size="4" shape="" element_type="f32"/>
			<output>
				<port id="0" precision="FP32"/>
			</output>
		</layer>
		<layer id="218" name="137361374048506" type="Const" version="opset1">
			<data offset="84424" size="4" shape="" element_type="f32"/>
			<output>
				<port id="0" precision="FP32"/>
			</output>
		</layer>
		<layer id="219" name="137371374148614" type="Const" version="opset1">
			<data offset="84428" size="4" shape="" element_type="f32"/>
			<output>
				<port id="0" precision="FP32"/>
			</output>
		</layer>
		<layer id="220" name="147341473848029" type="Const" version="opset1">
			<data offset="84432" size="4" shape="" element_type="f32"/>
			<output>
				<port id="0" precision="FP32"/>
			</output>
		</layer>
		<layer id="221" name="147351473951893" type="Const" version="opset1">
			<data offset="84436" size="4" shape="" element_type="f32"/>
			<output>
				<port id="0" precision="FP32"/>
			</output>
		</layer>
		<layer id="222" name="147361474050351" type="Const" version="opset1">
			<data offset="84432" size="4" shape="" element_type="f32"/>
			<output>
				<port id="0" precision="FP32"/>
			</output>
		</layer>
		<layer id="223" name="147371474146826" type="Const" version="opset1">
			<data offset="84436" size="4" shape="" element_type="f32"/>
			<output>
				<port id="0" precision="FP32"/>
			</output>
		</layer>
		<layer id="224" name="129341293850771" type="Const" version="opset1">
			<data offset="84440" size="4" shape="" element_type="f32"/>
			<output>
				<port id="0" precision="FP32"/>
			</output>
		</layer>
		<layer id="225" name="129351293947762" type="Const" version="opset1">
			<data offset="84444" size="4" shape="" element_type="f32"/>
			<output>
				<port id="0" precision="FP32"/>
			</output>
		</layer>
		<layer id="226" name="129361294047996" type="Const" version="opset1">
			<data offset="84440" size="4" shape="" element_type="f32"/>
			<output>
				<port id="0" precision="FP32"/>
			</output>
		</layer>
		<layer id="227" name="129371294146379" type="Const" version="opset1">
			<data offset="84444" size="4" shape="" element_type="f32"/>
			<output>
				<port id="0" precision="FP32"/>
			</output>
		</layer>
		<layer id="228" name="136341363850924" type="Const" version="opset1">
			<data offset="40" size="4" shape="" element_type="f32"/>
			<output>
				<port id="0" precision="FP32"/>
			</output>
		</layer>
		<layer id="229" name="136351363948542" type="Const" version="opset1">
			<data offset="84448" size="4" shape="" element_type="f32"/>
			<output>
				<port id="0" precision="FP32"/>
			</output>
		</layer>
		<layer id="230" name="136361364049715" type="Const" version="opset1">
			<data offset="40" size="4" shape="" element_type="f32"/>
			<output>
				<port id="0" precision="FP32"/>
			</output>
		</layer>
		<layer id="231" name="136371364151761" type="Const" version="opset1">
			<data offset="84448" size="4" shape="" element_type="f32"/>
			<output>
				<port id="0" precision="FP32"/>
			</output>
		</layer>
		<layer id="232" name="150441504849403" type="Const" version="opset1">
			<data offset="84452" size="4" shape="" element_type="f32"/>
			<output>
				<port id="0" precision="FP32"/>
			</output>
		</layer>
		<layer id="233" name="150451504950846" type="Const" version="opset1">
			<data offset="84456" size="4" shape="" element_type="f32"/>
			<output>
				<port id="0" precision="FP32"/>
			</output>
		</layer>
		<layer id="234" name="150461505048686" type="Const" version="opset1">
			<data offset="84452" size="4" shape="" element_type="f32"/>
			<output>
				<port id="0" precision="FP32"/>
			</output>
		</layer>
		<layer id="235" name="150471505148137" type="Const" version="opset1">
			<data offset="84456" size="4" shape="" element_type="f32"/>
			<output>
				<port id="0" precision="FP32"/>
			</output>
		</layer>
		<layer id="236" name="180201802446124" type="Const" version="opset1">
			<data offset="84460" size="2880" shape="1,720,1,1" element_type="f32"/>
			<output>
				<port id="0" precision="FP32">
					<dim>1</dim>
					<dim>720</dim>
					<dim>1</dim>
					<dim>1</dim>
				</port>
			</output>
		</layer>
		<layer id="237" name="180211802547852" type="Const" version="opset1">
			<data offset="87340" size="2880" shape="1,720,1,1" element_type="f32"/>
			<output>
				<port id="0" precision="FP32">
					<dim>1</dim>
					<dim>720</dim>
					<dim>1</dim>
					<dim>1</dim>
				</port>
			</output>
		</layer>
		<layer id="238" name="180221802650324" type="Const" version="opset1">
			<data offset="84460" size="2880" shape="1,720,1,1" element_type="f32"/>
			<output>
				<port id="0" precision="FP32">
					<dim>1</dim>
					<dim>720</dim>
					<dim>1</dim>
					<dim>1</dim>
				</port>
			</output>
		</layer>
		<layer id="239" name="180231802746181" type="Const" version="opset1">
			<data offset="87340" size="2880" shape="1,720,1,1" element_type="f32"/>
			<output>
				<port id="0" precision="FP32">
					<dim>1</dim>
					<dim>720</dim>
					<dim>1</dim>
					<dim>1</dim>
				</port>
			</output>
		</layer>
		<layer id="240" name="147441474851080" type="Const" version="opset1">
			<data offset="90220" size="4" shape="" element_type="f32"/>
			<output>
				<port id="0" precision="FP32"/>
			</output>
		</layer>
		<layer id="241" name="147451474951329" type="Const" version="opset1">
			<data offset="90224" size="4" shape="" element_type="f32"/>
			<output>
				<port id="0" precision="FP32"/>
			</output>
		</layer>
		<layer id="242" name="147461475048596" type="Const" version="opset1">
			<data offset="90220" size="4" shape="" element_type="f32"/>
			<output>
				<port id="0" precision="FP32"/>
			</output>
		</layer>
		<layer id="243" name="147471475151362" type="Const" version="opset1">
			<data offset="90224" size="4" shape="" element_type="f32"/>
			<output>
				<port id="0" precision="FP32"/>
			</output>
		</layer>
		<layer id="244" name="148741487847909" type="Const" version="opset1">
			<data offset="90228" size="4" shape="" element_type="f32"/>
			<output>
				<port id="0" precision="FP32"/>
			</output>
		</layer>
		<layer id="245" name="148751487948494" type="Const" version="opset1">
			<data offset="90232" size="4" shape="" element_type="f32"/>
			<output>
				<port id="0" precision="FP32"/>
			</output>
		</layer>
		<layer id="246" name="148761488048371" type="Const" version="opset1">
			<data offset="90228" size="4" shape="" element_type="f32"/>
			<output>
				<port id="0" precision="FP32"/>
			</output>
		</layer>
		<layer id="247" name="148771488152220" type="Const" version="opset1">
			<data offset="90232" size="4" shape="" element_type="f32"/>
			<output>
				<port id="0" precision="FP32"/>
			</output>
		</layer>
		<layer id="248" name="146841468848974" type="Const" version="opset1">
			<data offset="40" size="4" shape="" element_type="f32"/>
			<output>
				<port id="0" precision="FP32"/>
			</output>
		</layer>
		<layer id="249" name="146851468950195" type="Const" version="opset1">
			<data offset="90236" size="4" shape="" element_type="f32"/>
			<output>
				<port id="0" precision="FP32"/>
			</output>
		</layer>
		<layer id="250" name="146861469046376" type="Const" version="opset1">
			<data offset="40" size="4" shape="" element_type="f32"/>
			<output>
				<port id="0" precision="FP32"/>
			</output>
		</layer>
		<layer id="251" name="146871469149757" type="Const" version="opset1">
			<data offset="90236" size="4" shape="" element_type="f32"/>
			<output>
				<port id="0" precision="FP32"/>
			</output>
		</layer>
		<layer id="252" name="132841328849886" type="Const" version="opset1">
			<data offset="90240" size="4" shape="" element_type="f32"/>
			<output>
				<port id="0" precision="FP32"/>
			</output>
		</layer>
		<layer id="253" name="132851328949337" type="Const" version="opset1">
			<data offset="90244" size="4" shape="" element_type="f32"/>
			<output>
				<port id="0" precision="FP32"/>
			</output>
		</layer>
		<layer id="254" name="132861329047018" type="Const" version="opset1">
			<data offset="90240" size="4" shape="" element_type="f32"/>
			<output>
				<port id="0" precision="FP32"/>
			</output>
		</layer>
		<layer id="255" name="132871329148638" type="Const" version="opset1">
			<data offset="90244" size="4" shape="" element_type="f32"/>
			<output>
				<port id="0" precision="FP32"/>
			</output>
		</layer>
		<layer id="256" name="182601826448869" type="Const" version="opset1">
			<data offset="90248" size="2112" shape="1,528,1,1" element_type="f32"/>
			<output>
				<port id="0" precision="FP32">
					<dim>1</dim>
					<dim>528</dim>
					<dim>1</dim>
					<dim>1</dim>
				</port>
			</output>
		</layer>
		<layer id="257" name="182611826550765" type="Const" version="opset1">
			<data offset="92360" size="2112" shape="1,528,1,1" element_type="f32"/>
			<output>
				<port id="0" precision="FP32">
					<dim>1</dim>
					<dim>528</dim>
					<dim>1</dim>
					<dim>1</dim>
				</port>
			</output>
		</layer>
		<layer id="258" name="182621826646985" type="Const" version="opset1">
			<data offset="90248" size="2112" shape="1,528,1,1" element_type="f32"/>
			<output>
				<port id="0" precision="FP32">
					<dim>1</dim>
					<dim>528</dim>
					<dim>1</dim>
					<dim>1</dim>
				</port>
			</output>
		</layer>
		<layer id="259" name="182631826749415" type="Const" version="opset1">
			<data offset="92360" size="2112" shape="1,528,1,1" element_type="f32"/>
			<output>
				<port id="0" precision="FP32">
					<dim>1</dim>
					<dim>528</dim>
					<dim>1</dim>
					<dim>1</dim>
				</port>
			</output>
		</layer>
		<layer id="260" name="137041370847765" type="Const" version="opset1">
			<data offset="94472" size="4" shape="" element_type="f32"/>
			<output>
				<port id="0" precision="FP32"/>
			</output>
		</layer>
		<layer id="261" name="137051370952331" type="Const" version="opset1">
			<data offset="94476" size="4" shape="" element_type="f32"/>
			<output>
				<port id="0" precision="FP32"/>
			</output>
		</layer>
		<layer id="262" name="137061371052265" type="Const" version="opset1">
			<data offset="94472" size="4" shape="" element_type="f32"/>
			<output>
				<port id="0" precision="FP32"/>
			</output>
		</layer>
		<layer id="263" name="137071371148395" type="Const" version="opset1">
			<data offset="94476" size="4" shape="" element_type="f32"/>
			<output>
				<port id="0" precision="FP32"/>
			</output>
		</layer>
		<layer id="264" name="138941389848653" type="Const" version="opset1">
			<data offset="94480" size="4" shape="" element_type="f32"/>
			<output>
				<port id="0" precision="FP32"/>
			</output>
		</layer>
		<layer id="265" name="138951389951857" type="Const" version="opset1">
			<data offset="94484" size="4" shape="" element_type="f32"/>
			<output>
				<port id="0" precision="FP32"/>
			</output>
		</layer>
		<layer id="266" name="138961390049274" type="Const" version="opset1">
			<data offset="94480" size="4" shape="" element_type="f32"/>
			<output>
				<port id="0" precision="FP32"/>
			</output>
		</layer>
		<layer id="267" name="138971390147453" type="Const" version="opset1">
			<data offset="94484" size="4" shape="" element_type="f32"/>
			<output>
				<port id="0" precision="FP32"/>
			</output>
		</layer>
		<layer id="268" name="123441234847057" type="Const" version="opset1">
			<data offset="94488" size="4" shape="" element_type="f32"/>
			<output>
				<port id="0" precision="FP32"/>
			</output>
		</layer>
		<layer id="269" name="123451234951686" type="Const" version="opset1">
			<data offset="94492" size="4" shape="" element_type="f32"/>
			<output>
				<port id="0" precision="FP32"/>
			</output>
		</layer>
		<layer id="270" name="123461235047495" type="Const" version="opset1">
			<data offset="94488" size="4" shape="" element_type="f32"/>
			<output>
				<port id="0" precision="FP32"/>
			</output>
		</layer>
		<layer id="271" name="123471235147939" type="Const" version="opset1">
			<data offset="94492" size="4" shape="" element_type="f32"/>
			<output>
				<port id="0" precision="FP32"/>
			</output>
		</layer>
		<layer id="272" name="128141281848755" type="Const" version="opset1">
			<data offset="40" size="4" shape="" element_type="f32"/>
			<output>
				<port id="0" precision="FP32"/>
			</output>
		</layer>
		<layer id="273" name="128151281952346" type="Const" version="opset1">
			<data offset="94496" size="4" shape="" element_type="f32"/>
			<output>
				<port id="0" precision="FP32"/>
			</output>
		</layer>
		<layer id="274" name="128161282050219" type="Const" version="opset1">
			<data offset="40" size="4" shape="" element_type="f32"/>
			<output>
				<port id="0" precision="FP32"/>
			</output>
		</layer>
		<layer id="275" name="128171282148323" type="Const" version="opset1">
			<data offset="94496" size="4" shape="" element_type="f32"/>
			<output>
				<port id="0" precision="FP32"/>
			</output>
		</layer>
		<layer id="276" name="127341273848461" type="Const" version="opset1">
			<data offset="94500" size="4" shape="" element_type="f32"/>
			<output>
				<port id="0" precision="FP32"/>
			</output>
		</layer>
		<layer id="277" name="127351273950144" type="Const" version="opset1">
			<data offset="94504" size="4" shape="" element_type="f32"/>
			<output>
				<port id="0" precision="FP32"/>
			</output>
		</layer>
		<layer id="278" name="127361274047513" type="Const" version="opset1">
			<data offset="94500" size="4" shape="" element_type="f32"/>
			<output>
				<port id="0" precision="FP32"/>
			</output>
		</layer>
		<layer id="279" name="127371274146487" type="Const" version="opset1">
			<data offset="94504" size="4" shape="" element_type="f32"/>
			<output>
				<port id="0" precision="FP32"/>
			</output>
		</layer>
		<layer id="280" name="182501825447588" type="Const" version="opset1">
			<data offset="94508" size="2112" shape="1,528,1,1" element_type="f32"/>
			<output>
				<port id="0" precision="FP32">
					<dim>1</dim>
					<dim>528</dim>
					<dim>1</dim>
					<dim>1</dim>
				</port>
			</output>
		</layer>
		<layer id="281" name="182511825546598" type="Const" version="opset1">
			<data offset="96620" size="2112" shape="1,528,1,1" element_type="f32"/>
			<output>
				<port id="0" precision="FP32">
					<dim>1</dim>
					<dim>528</dim>
					<dim>1</dim>
					<dim>1</dim>
				</port>
			</output>
		</layer>
		<layer id="282" name="182521825649430" type="Const" version="opset1">
			<data offset="94508" size="2112" shape="1,528,1,1" element_type="f32"/>
			<output>
				<port id="0" precision="FP32">
					<dim>1</dim>
					<dim>528</dim>
					<dim>1</dim>
					<dim>1</dim>
				</port>
			</output>
		</layer>
		<layer id="283" name="182531825746367" type="Const" version="opset1">
			<data offset="96620" size="2112" shape="1,528,1,1" element_type="f32"/>
			<output>
				<port id="0" precision="FP32">
					<dim>1</dim>
					<dim>528</dim>
					<dim>1</dim>
					<dim>1</dim>
				</port>
			</output>
		</layer>
		<layer id="284" name="139041390848725" type="Const" version="opset1">
			<data offset="98732" size="4" shape="" element_type="f32"/>
			<output>
				<port id="0" precision="FP32"/>
			</output>
		</layer>
		<layer id="285" name="139051390950435" type="Const" version="opset1">
			<data offset="98736" size="4" shape="" element_type="f32"/>
			<output>
				<port id="0" precision="FP32"/>
			</output>
		</layer>
		<layer id="286" name="139061391050516" type="Const" version="opset1">
			<data offset="98732" size="4" shape="" element_type="f32"/>
			<output>
				<port id="0" precision="FP32"/>
			</output>
		</layer>
		<layer id="287" name="139071391151494" type="Const" version="opset1">
			<data offset="98736" size="4" shape="" element_type="f32"/>
			<output>
				<port id="0" precision="FP32"/>
			</output>
		</layer>
		<layer id="288" name="145041450848080" type="Const" version="opset1">
			<data offset="98740" size="4" shape="" element_type="f32"/>
			<output>
				<port id="0" precision="FP32"/>
			</output>
		</layer>
		<layer id="289" name="145051450946067" type="Const" version="opset1">
			<data offset="98744" size="4" shape="" element_type="f32"/>
			<output>
				<port id="0" precision="FP32"/>
			</output>
		</layer>
		<layer id="290" name="145061451051821" type="Const" version="opset1">
			<data offset="98740" size="4" shape="" element_type="f32"/>
			<output>
				<port id="0" precision="FP32"/>
			</output>
		</layer>
		<layer id="291" name="145071451150537" type="Const" version="opset1">
			<data offset="98744" size="4" shape="" element_type="f32"/>
			<output>
				<port id="0" precision="FP32"/>
			</output>
		</layer>
		<layer id="292" name="141941419847663" type="Const" version="opset1">
			<data offset="98748" size="4" shape="" element_type="f32"/>
			<output>
				<port id="0" precision="FP32"/>
			</output>
		</layer>
		<layer id="293" name="141951419947273" type="Const" version="opset1">
			<data offset="98752" size="4" shape="" element_type="f32"/>
			<output>
				<port id="0" precision="FP32"/>
			</output>
		</layer>
		<layer id="294" name="141961420046466" type="Const" version="opset1">
			<data offset="98748" size="4" shape="" element_type="f32"/>
			<output>
				<port id="0" precision="FP32"/>
			</output>
		</layer>
		<layer id="295" name="141971420147354" type="Const" version="opset1">
			<data offset="98752" size="4" shape="" element_type="f32"/>
			<output>
				<port id="0" precision="FP32"/>
			</output>
		</layer>
		<layer id="296" name="150241502848635" type="Const" version="opset1">
			<data offset="40" size="4" shape="" element_type="f32"/>
			<output>
				<port id="0" precision="FP32"/>
			</output>
		</layer>
		<layer id="297" name="150251502949613" type="Const" version="opset1">
			<data offset="98756" size="4" shape="" element_type="f32"/>
			<output>
				<port id="0" precision="FP32"/>
			</output>
		</layer>
		<layer id="298" name="150261503050819" type="Const" version="opset1">
			<data offset="40" size="4" shape="" element_type="f32"/>
			<output>
				<port id="0" precision="FP32"/>
			</output>
		</layer>
		<layer id="299" name="150271503146910" type="Const" version="opset1">
			<data offset="98756" size="4" shape="" element_type="f32"/>
			<output>
				<port id="0" precision="FP32"/>
			</output>
		</layer>
		<layer id="300" name="139841398851461" type="Const" version="opset1">
			<data offset="98760" size="4" shape="" element_type="f32"/>
			<output>
				<port id="0" precision="FP32"/>
			</output>
		</layer>
		<layer id="301" name="139851398951392" type="Const" version="opset1">
			<data offset="98764" size="4" shape="" element_type="f32"/>
			<output>
				<port id="0" precision="FP32"/>
			</output>
		</layer>
		<layer id="302" name="139861399050606" type="Const" version="opset1">
			<data offset="98760" size="4" shape="" element_type="f32"/>
			<output>
				<port id="0" precision="FP32"/>
			</output>
		</layer>
		<layer id="303" name="139871399149547" type="Const" version="opset1">
			<data offset="98764" size="4" shape="" element_type="f32"/>
			<output>
				<port id="0" precision="FP32"/>
			</output>
		</layer>
		<layer id="304" name="182401824450492" type="Const" version="opset1">
			<data offset="98768" size="2112" shape="1,528,1,1" element_type="f32"/>
			<output>
				<port id="0" precision="FP32">
					<dim>1</dim>
					<dim>528</dim>
					<dim>1</dim>
					<dim>1</dim>
				</port>
			</output>
		</layer>
		<layer id="305" name="182411824547414" type="Const" version="opset1">
			<data offset="100880" size="2112" shape="1,528,1,1" element_type="f32"/>
			<output>
				<port id="0" precision="FP32">
					<dim>1</dim>
					<dim>528</dim>
					<dim>1</dim>
					<dim>1</dim>
				</port>
			</output>
		</layer>
		<layer id="306" name="182421824651143" type="Const" version="opset1">
			<data offset="98768" size="2112" shape="1,528,1,1" element_type="f32"/>
			<output>
				<port id="0" precision="FP32">
					<dim>1</dim>
					<dim>528</dim>
					<dim>1</dim>
					<dim>1</dim>
				</port>
			</output>
		</layer>
		<layer id="307" name="182431824750864" type="Const" version="opset1">
			<data offset="100880" size="2112" shape="1,528,1,1" element_type="f32"/>
			<output>
				<port id="0" precision="FP32">
					<dim>1</dim>
					<dim>528</dim>
					<dim>1</dim>
					<dim>1</dim>
				</port>
			</output>
		</layer>
		<layer id="308" name="145141451848065" type="Const" version="opset1">
			<data offset="102992" size="4" shape="" element_type="f32"/>
			<output>
				<port id="0" precision="FP32"/>
			</output>
		</layer>
		<layer id="309" name="145151451945920" type="Const" version="opset1">
			<data offset="102996" size="4" shape="" element_type="f32"/>
			<output>
				<port id="0" precision="FP32"/>
			</output>
		</layer>
		<layer id="310" name="145161452050630" type="Const" version="opset1">
			<data offset="102992" size="4" shape="" element_type="f32"/>
			<output>
				<port id="0" precision="FP32"/>
			</output>
		</layer>
		<layer id="311" name="145171452146691" type="Const" version="opset1">
			<data offset="102996" size="4" shape="" element_type="f32"/>
			<output>
				<port id="0" precision="FP32"/>
			</output>
		</layer>
		<layer id="312" name="145641456849262" type="Const" version="opset1">
			<data offset="103000" size="4" shape="" element_type="f32"/>
			<output>
				<port id="0" precision="FP32"/>
			</output>
		</layer>
		<layer id="313" name="145651456949382" type="Const" version="opset1">
			<data offset="103004" size="4" shape="" element_type="f32"/>
			<output>
				<port id="0" precision="FP32"/>
			</output>
		</layer>
		<layer id="314" name="145661457048488" type="Const" version="opset1">
			<data offset="103000" size="4" shape="" element_type="f32"/>
			<output>
				<port id="0" precision="FP32"/>
			</output>
		</layer>
		<layer id="315" name="145671457151320" type="Const" version="opset1">
			<data offset="103004" size="4" shape="" element_type="f32"/>
			<output>
				<port id="0" precision="FP32"/>
			</output>
		</layer>
		<layer id="316" name="122341223849541" type="Const" version="opset1">
			<data offset="103008" size="4" shape="" element_type="f32"/>
			<output>
				<port id="0" precision="FP32"/>
			</output>
		</layer>
		<layer id="317" name="122351223947519" type="Const" version="opset1">
			<data offset="103012" size="4" shape="" element_type="f32"/>
			<output>
				<port id="0" precision="FP32"/>
			</output>
		</layer>
		<layer id="318" name="122361224052124" type="Const" version="opset1">
			<data offset="103008" size="4" shape="" element_type="f32"/>
			<output>
				<port id="0" precision="FP32"/>
			</output>
		</layer>
		<layer id="319" name="122371224148362" type="Const" version="opset1">
			<data offset="103012" size="4" shape="" element_type="f32"/>
			<output>
				<port id="0" precision="FP32"/>
			</output>
		</layer>
		<layer id="320" name="127541275850063" type="Const" version="opset1">
			<data offset="40" size="4" shape="" element_type="f32"/>
			<output>
				<port id="0" precision="FP32"/>
			</output>
		</layer>
		<layer id="321" name="127551275947480" type="Const" version="opset1">
			<data offset="103016" size="4" shape="" element_type="f32"/>
			<output>
				<port id="0" precision="FP32"/>
			</output>
		</layer>
		<layer id="322" name="127561276049238" type="Const" version="opset1">
			<data offset="40" size="4" shape="" element_type="f32"/>
			<output>
				<port id="0" precision="FP32"/>
			</output>
		</layer>
		<layer id="323" name="127571276149652" type="Const" version="opset1">
			<data offset="103016" size="4" shape="" element_type="f32"/>
			<output>
				<port id="0" precision="FP32"/>
			</output>
		</layer>
		<layer id="324" name="134041340846037" type="Const" version="opset1">
			<data offset="103020" size="4" shape="" element_type="f32"/>
			<output>
				<port id="0" precision="FP32"/>
			</output>
		</layer>
		<layer id="325" name="134051340952019" type="Const" version="opset1">
			<data offset="103024" size="4" shape="" element_type="f32"/>
			<output>
				<port id="0" precision="FP32"/>
			</output>
		</layer>
		<layer id="326" name="134061341050300" type="Const" version="opset1">
			<data offset="103020" size="4" shape="" element_type="f32"/>
			<output>
				<port id="0" precision="FP32"/>
			</output>
		</layer>
		<layer id="327" name="134071341149736" type="Const" version="opset1">
			<data offset="103024" size="4" shape="" element_type="f32"/>
			<output>
				<port id="0" precision="FP32"/>
			</output>
		</layer>
		<layer id="328" name="182301823452130" type="Const" version="opset1">
			<data offset="103028" size="2112" shape="1,528,1,1" element_type="f32"/>
			<output>
				<port id="0" precision="FP32">
					<dim>1</dim>
					<dim>528</dim>
					<dim>1</dim>
					<dim>1</dim>
				</port>
			</output>
		</layer>
		<layer id="329" name="182311823552097" type="Const" version="opset1">
			<data offset="105140" size="2112" shape="1,528,1,1" element_type="f32"/>
			<output>
				<port id="0" precision="FP32">
					<dim>1</dim>
					<dim>528</dim>
					<dim>1</dim>
					<dim>1</dim>
				</port>
			</output>
		</layer>
		<layer id="330" name="182321823649637" type="Const" version="opset1">
			<data offset="103028" size="2112" shape="1,528,1,1" element_type="f32"/>
			<output>
				<port id="0" precision="FP32">
					<dim>1</dim>
					<dim>528</dim>
					<dim>1</dim>
					<dim>1</dim>
				</port>
			</output>
		</layer>
		<layer id="331" name="182331823751536" type="Const" version="opset1">
			<data offset="105140" size="2112" shape="1,528,1,1" element_type="f32"/>
			<output>
				<port id="0" precision="FP32">
					<dim>1</dim>
					<dim>528</dim>
					<dim>1</dim>
					<dim>1</dim>
				</port>
			</output>
		</layer>
		<layer id="332" name="145741457848485" type="Const" version="opset1">
			<data offset="107252" size="4" shape="" element_type="f32"/>
			<output>
				<port id="0" precision="FP32"/>
			</output>
		</layer>
		<layer id="333" name="145751457950723" type="Const" version="opset1">
			<data offset="107256" size="4" shape="" element_type="f32"/>
			<output>
				<port id="0" precision="FP32"/>
			</output>
		</layer>
		<layer id="334" name="145761458048107" type="Const" version="opset1">
			<data offset="107252" size="4" shape="" element_type="f32"/>
			<output>
				<port id="0" precision="FP32"/>
			</output>
		</layer>
		<layer id="335" name="145771458148098" type="Const" version="opset1">
			<data offset="107256" size="4" shape="" element_type="f32"/>
			<output>
				<port id="0" precision="FP32"/>
			</output>
		</layer>
		<layer id="336" name="125741257849280" type="Const" version="opset1">
			<data offset="107260" size="4" shape="" element_type="f32"/>
			<output>
				<port id="0" precision="FP32"/>
			</output>
		</layer>
		<layer id="337" name="125751257948005" type="Const" version="opset1">
			<data offset="107264" size="4" shape="" element_type="f32"/>
			<output>
				<port id="0" precision="FP32"/>
			</output>
		</layer>
		<layer id="338" name="125761258052004" type="Const" version="opset1">
			<data offset="107260" size="4" shape="" element_type="f32"/>
			<output>
				<port id="0" precision="FP32"/>
			</output>
		</layer>
		<layer id="339" name="125771258149988" type="Const" version="opset1">
			<data offset="107264" size="4" shape="" element_type="f32"/>
			<output>
				<port id="0" precision="FP32"/>
			</output>
		</layer>
		<layer id="340" name="127741277851722" type="Const" version="opset1">
			<data offset="40" size="4" shape="" element_type="f32"/>
			<output>
				<port id="0" precision="FP32"/>
			</output>
		</layer>
		<layer id="341" name="127751277949244" type="Const" version="opset1">
			<data offset="107268" size="4" shape="" element_type="f32"/>
			<output>
				<port id="0" precision="FP32"/>
			</output>
		</layer>
		<layer id="342" name="127761278048236" type="Const" version="opset1">
			<data offset="40" size="4" shape="" element_type="f32"/>
			<output>
				<port id="0" precision="FP32"/>
			</output>
		</layer>
		<layer id="343" name="127771278150210" type="Const" version="opset1">
			<data offset="107268" size="4" shape="" element_type="f32"/>
			<output>
				<port id="0" precision="FP32"/>
			</output>
		</layer>
		<layer id="344" name="150941509846196" type="Const" version="opset1">
			<data offset="107272" size="4" shape="" element_type="f32"/>
			<output>
				<port id="0" precision="FP32"/>
			</output>
		</layer>
		<layer id="345" name="150951509945914" type="Const" version="opset1">
			<data offset="107276" size="4" shape="" element_type="f32"/>
			<output>
				<port id="0" precision="FP32"/>
			</output>
		</layer>
		<layer id="346" name="150961510048224" type="Const" version="opset1">
			<data offset="107272" size="4" shape="" element_type="f32"/>
			<output>
				<port id="0" precision="FP32"/>
			</output>
		</layer>
		<layer id="347" name="150971510148956" type="Const" version="opset1">
			<data offset="107276" size="4" shape="" element_type="f32"/>
			<output>
				<port id="0" precision="FP32"/>
			</output>
		</layer>
		<layer id="348" name="182201822448185" type="Const" version="opset1">
			<data offset="107280" size="1152" shape="1,288,1,1" element_type="f32"/>
			<output>
				<port id="0" precision="FP32">
					<dim>1</dim>
					<dim>288</dim>
					<dim>1</dim>
					<dim>1</dim>
				</port>
			</output>
		</layer>
		<layer id="349" name="182211822551107" type="Const" version="opset1">
			<data offset="108432" size="1152" shape="1,288,1,1" element_type="f32"/>
			<output>
				<port id="0" precision="FP32">
					<dim>1</dim>
					<dim>288</dim>
					<dim>1</dim>
					<dim>1</dim>
				</port>
			</output>
		</layer>
		<layer id="350" name="182221822649907" type="Const" version="opset1">
			<data offset="107280" size="1152" shape="1,288,1,1" element_type="f32"/>
			<output>
				<port id="0" precision="FP32">
					<dim>1</dim>
					<dim>288</dim>
					<dim>1</dim>
					<dim>1</dim>
				</port>
			</output>
		</layer>
		<layer id="351" name="182231822747600" type="Const" version="opset1">
			<data offset="108432" size="1152" shape="1,288,1,1" element_type="f32"/>
			<output>
				<port id="0" precision="FP32">
					<dim>1</dim>
					<dim>288</dim>
					<dim>1</dim>
					<dim>1</dim>
				</port>
			</output>
		</layer>
		<layer id="352" name="135041350850432" type="Const" version="opset1">
			<data offset="109584" size="4" shape="" element_type="f32"/>
			<output>
				<port id="0" precision="FP32"/>
			</output>
		</layer>
		<layer id="353" name="135051350948182" type="Const" version="opset1">
			<data offset="109588" size="4" shape="" element_type="f32"/>
			<output>
				<port id="0" precision="FP32"/>
			</output>
		</layer>
		<layer id="354" name="135061351046952" type="Const" version="opset1">
			<data offset="109584" size="4" shape="" element_type="f32"/>
			<output>
				<port id="0" precision="FP32"/>
			</output>
		</layer>
		<layer id="355" name="135071351147420" type="Const" version="opset1">
			<data offset="109588" size="4" shape="" element_type="f32"/>
			<output>
				<port id="0" precision="FP32"/>
			</output>
		</layer>
		<layer id="356" name="139141391846727" type="Const" version="opset1">
			<data offset="109592" size="4" shape="" element_type="f32"/>
			<output>
				<port id="0" precision="FP32"/>
			</output>
		</layer>
		<layer id="357" name="139151391949742" type="Const" version="opset1">
			<data offset="109596" size="4" shape="" element_type="f32"/>
			<output>
				<port id="0" precision="FP32"/>
			</output>
		</layer>
		<layer id="358" name="139161392048293" type="Const" version="opset1">
			<data offset="109592" size="4" shape="" element_type="f32"/>
			<output>
				<port id="0" precision="FP32"/>
			</output>
		</layer>
		<layer id="359" name="139171392151998" type="Const" version="opset1">
			<data offset="109596" size="4" shape="" element_type="f32"/>
			<output>
				<port id="0" precision="FP32"/>
			</output>
		</layer>
		<layer id="360" name="133041330846427" type="Const" version="opset1">
			<data offset="109600" size="4" shape="" element_type="f32"/>
			<output>
				<port id="0" precision="FP32"/>
			</output>
		</layer>
		<layer id="361" name="133051330949733" type="Const" version="opset1">
			<data offset="109604" size="4" shape="" element_type="f32"/>
			<output>
				<port id="0" precision="FP32"/>
			</output>
		</layer>
		<layer id="362" name="133061331047270" type="Const" version="opset1">
			<data offset="109600" size="4" shape="" element_type="f32"/>
			<output>
				<port id="0" precision="FP32"/>
			</output>
		</layer>
		<layer id="363" name="133071331150126" type="Const" version="opset1">
			<data offset="109604" size="4" shape="" element_type="f32"/>
			<output>
				<port id="0" precision="FP32"/>
			</output>
		</layer>
		<layer id="364" name="147041470851425" type="Const" version="opset1">
			<data offset="40" size="4" shape="" element_type="f32"/>
			<output>
				<port id="0" precision="FP32"/>
			</output>
		</layer>
		<layer id="365" name="147051470948053" type="Const" version="opset1">
			<data offset="109608" size="4" shape="" element_type="f32"/>
			<output>
				<port id="0" precision="FP32"/>
			</output>
		</layer>
		<layer id="366" name="147061471047141" type="Const" version="opset1">
			<data offset="40" size="4" shape="" element_type="f32"/>
			<output>
				<port id="0" precision="FP32"/>
			</output>
		</layer>
		<layer id="367" name="147071471147216" type="Const" version="opset1">
			<data offset="109608" size="4" shape="" element_type="f32"/>
			<output>
				<port id="0" precision="FP32"/>
			</output>
		</layer>
		<layer id="368" name="131141311847498" type="Const" version="opset1">
			<data offset="109612" size="4" shape="" element_type="f32"/>
			<output>
				<port id="0" precision="FP32"/>
			</output>
		</layer>
		<layer id="369" name="131151311951491" type="Const" version="opset1">
			<data offset="109616" size="4" shape="" element_type="f32"/>
			<output>
				<port id="0" precision="FP32"/>
			</output>
		</layer>
		<layer id="370" name="131161312051215" type="Const" version="opset1">
			<data offset="109612" size="4" shape="" element_type="f32"/>
			<output>
				<port id="0" precision="FP32"/>
			</output>
		</layer>
		<layer id="371" name="131171312150624" type="Const" version="opset1">
			<data offset="109616" size="4" shape="" element_type="f32"/>
			<output>
				<port id="0" precision="FP32"/>
			</output>
		</layer>
		<layer id="372" name="182001820447819" type="Const" version="opset1">
			<data offset="109620" size="1152" shape="1,288,1,1" element_type="f32"/>
			<output>
				<port id="0" precision="FP32">
					<dim>1</dim>
					<dim>288</dim>
					<dim>1</dim>
					<dim>1</dim>
				</port>
			</output>
		</layer>
		<layer id="373" name="182011820550243" type="Const" version="opset1">
			<data offset="110772" size="1152" shape="1,288,1,1" element_type="f32"/>
			<output>
				<port id="0" precision="FP32">
					<dim>1</dim>
					<dim>288</dim>
					<dim>1</dim>
					<dim>1</dim>
				</port>
			</output>
		</layer>
		<layer id="374" name="182021820646925" type="Const" version="opset1">
			<data offset="109620" size="1152" shape="1,288,1,1" element_type="f32"/>
			<output>
				<port id="0" precision="FP32">
					<dim>1</dim>
					<dim>288</dim>
					<dim>1</dim>
					<dim>1</dim>
				</port>
			</output>
		</layer>
		<layer id="375" name="182031820751167" type="Const" version="opset1">
			<data offset="110772" size="1152" shape="1,288,1,1" element_type="f32"/>
			<output>
				<port id="0" precision="FP32">
					<dim>1</dim>
					<dim>288</dim>
					<dim>1</dim>
					<dim>1</dim>
				</port>
			</output>
		</layer>
		<layer id="376" name="139241392850639" type="Const" version="opset1">
			<data offset="111924" size="4" shape="" element_type="f32"/>
			<output>
				<port id="0" precision="FP32"/>
			</output>
		</layer>
		<layer id="377" name="139251392951773" type="Const" version="opset1">
			<data offset="111928" size="4" shape="" element_type="f32"/>
			<output>
				<port id="0" precision="FP32"/>
			</output>
		</layer>
		<layer id="378" name="139261393050912" type="Const" version="opset1">
			<data offset="111924" size="4" shape="" element_type="f32"/>
			<output>
				<port id="0" precision="FP32"/>
			</output>
		</layer>
		<layer id="379" name="139271393149562" type="Const" version="opset1">
			<data offset="111928" size="4" shape="" element_type="f32"/>
			<output>
				<port id="0" precision="FP32"/>
			</output>
		</layer>
		<layer id="380" name="136441364850996" type="Const" version="opset1">
			<data offset="111932" size="4" shape="" element_type="f32"/>
			<output>
				<port id="0" precision="FP32"/>
			</output>
		</layer>
		<layer id="381" name="136451364950549" type="Const" version="opset1">
			<data offset="111936" size="4" shape="" element_type="f32"/>
			<output>
				<port id="0" precision="FP32"/>
			</output>
		</layer>
		<layer id="382" name="136461365049157" type="Const" version="opset1">
			<data offset="111932" size="4" shape="" element_type="f32"/>
			<output>
				<port id="0" precision="FP32"/>
			</output>
		</layer>
		<layer id="383" name="136471365148575" type="Const" version="opset1">
			<data offset="111936" size="4" shape="" element_type="f32"/>
			<output>
				<port id="0" precision="FP32"/>
			</output>
		</layer>
		<layer id="384" name="122841228852244" type="Const" version="opset1">
			<data offset="111940" size="4" shape="" element_type="f32"/>
			<output>
				<port id="0" precision="FP32"/>
			</output>
		</layer>
		<layer id="385" name="122851228950060" type="Const" version="opset1">
			<data offset="111944" size="4" shape="" element_type="f32"/>
			<output>
				<port id="0" precision="FP32"/>
			</output>
		</layer>
		<layer id="386" name="122861229048365" type="Const" version="opset1">
			<data offset="111940" size="4" shape="" element_type="f32"/>
			<output>
				<port id="0" precision="FP32"/>
			</output>
		</layer>
		<layer id="387" name="122871229152319" type="Const" version="opset1">
			<data offset="111944" size="4" shape="" element_type="f32"/>
			<output>
				<port id="0" precision="FP32"/>
			</output>
		</layer>
		<layer id="388" name="131341313851902" type="Const" version="opset1">
			<data offset="40" size="4" shape="" element_type="f32"/>
			<output>
				<port id="0" precision="FP32"/>
			</output>
		</layer>
		<layer id="389" name="131351313948893" type="Const" version="opset1">
			<data offset="111948" size="4" shape="" element_type="f32"/>
			<output>
				<port id="0" precision="FP32"/>
			</output>
		</layer>
		<layer id="390" name="131361314049163" type="Const" version="opset1">
			<data offset="40" size="4" shape="" element_type="f32"/>
			<output>
				<port id="0" precision="FP32"/>
			</output>
		</layer>
		<layer id="391" name="131371314146079" type="Const" version="opset1">
			<data offset="111948" size="4" shape="" element_type="f32"/>
			<output>
				<port id="0" precision="FP32"/>
			</output>
		</layer>
		<layer id="392" name="146441464851911" type="Const" version="opset1">
			<data offset="111952" size="4" shape="" element_type="f32"/>
			<output>
				<port id="0" precision="FP32"/>
			</output>
		</layer>
		<layer id="393" name="146451464950684" type="Const" version="opset1">
			<data offset="111956" size="4" shape="" element_type="f32"/>
			<output>
				<port id="0" precision="FP32"/>
			</output>
		</layer>
		<layer id="394" name="146461465046904" type="Const" version="opset1">
			<data offset="111952" size="4" shape="" element_type="f32"/>
			<output>
				<port id="0" precision="FP32"/>
			</output>
		</layer>
		<layer id="395" name="146471465151500" type="Const" version="opset1">
			<data offset="111956" size="4" shape="" element_type="f32"/>
			<output>
				<port id="0" precision="FP32"/>
			</output>
		</layer>
		<layer id="396" name="181901819450645" type="Const" version="opset1">
			<data offset="111960" size="1152" shape="1,288,1,1" element_type="f32"/>
			<output>
				<port id="0" precision="FP32">
					<dim>1</dim>
					<dim>288</dim>
					<dim>1</dim>
					<dim>1</dim>
				</port>
			</output>
		</layer>
		<layer id="397" name="181911819549898" type="Const" version="opset1">
			<data offset="113112" size="1152" shape="1,288,1,1" element_type="f32"/>
			<output>
				<port id="0" precision="FP32">
					<dim>1</dim>
					<dim>288</dim>
					<dim>1</dim>
					<dim>1</dim>
				</port>
			</output>
		</layer>
		<layer id="398" name="181921819651338" type="Const" version="opset1">
			<data offset="111960" size="1152" shape="1,288,1,1" element_type="f32"/>
			<output>
				<port id="0" precision="FP32">
					<dim>1</dim>
					<dim>288</dim>
					<dim>1</dim>
					<dim>1</dim>
				</port>
			</output>
		</layer>
		<layer id="399" name="181931819747885" type="Const" version="opset1">
			<data offset="113112" size="1152" shape="1,288,1,1" element_type="f32"/>
			<output>
				<port id="0" precision="FP32">
					<dim>1</dim>
					<dim>288</dim>
					<dim>1</dim>
					<dim>1</dim>
				</port>
			</output>
		</layer>
		<layer id="400" name="136541365849253" type="Const" version="opset1">
			<data offset="114264" size="4" shape="" element_type="f32"/>
			<output>
				<port id="0" precision="FP32"/>
			</output>
		</layer>
		<layer id="401" name="136551365947345" type="Const" version="opset1">
			<data offset="114268" size="4" shape="" element_type="f32"/>
			<output>
				<port id="0" precision="FP32"/>
			</output>
		</layer>
		<layer id="402" name="136561366045959" type="Const" version="opset1">
			<data offset="114264" size="4" shape="" element_type="f32"/>
			<output>
				<port id="0" precision="FP32"/>
			</output>
		</layer>
		<layer id="403" name="136571366146022" type="Const" version="opset1">
			<data offset="114268" size="4" shape="" element_type="f32"/>
			<output>
				<port id="0" precision="FP32"/>
			</output>
		</layer>
		<layer id="404" name="124941249848203" type="Const" version="opset1">
			<data offset="114272" size="4" shape="" element_type="f32"/>
			<output>
				<port id="0" precision="FP32"/>
			</output>
		</layer>
		<layer id="405" name="124951249947957" type="Const" version="opset1">
			<data offset="114276" size="4" shape="" element_type="f32"/>
			<output>
				<port id="0" precision="FP32"/>
			</output>
		</layer>
		<layer id="406" name="124961250046796" type="Const" version="opset1">
			<data offset="114272" size="4" shape="" element_type="f32"/>
			<output>
				<port id="0" precision="FP32"/>
			</output>
		</layer>
		<layer id="407" name="124971250149997" type="Const" version="opset1">
			<data offset="114276" size="4" shape="" element_type="f32"/>
			<output>
				<port id="0" precision="FP32"/>
			</output>
		</layer>
		<layer id="408" name="124641246850840" type="Const" version="opset1">
			<data offset="40" size="4" shape="" element_type="f32"/>
			<output>
				<port id="0" precision="FP32"/>
			</output>
		</layer>
		<layer id="409" name="124651246947900" type="Const" version="opset1">
			<data offset="114280" size="4" shape="" element_type="f32"/>
			<output>
				<port id="0" precision="FP32"/>
			</output>
		</layer>
		<layer id="410" name="124661247051848" type="Const" version="opset1">
			<data offset="40" size="4" shape="" element_type="f32"/>
			<output>
				<port id="0" precision="FP32"/>
			</output>
		</layer>
		<layer id="411" name="124671247147585" type="Const" version="opset1">
			<data offset="114280" size="4" shape="" element_type="f32"/>
			<output>
				<port id="0" precision="FP32"/>
			</output>
		</layer>
		<layer id="412" name="133641336848404" type="Const" version="opset1">
			<data offset="114284" size="4" shape="" element_type="f32"/>
			<output>
				<port id="0" precision="FP32"/>
			</output>
		</layer>
		<layer id="413" name="133651336946010" type="Const" version="opset1">
			<data offset="114288" size="4" shape="" element_type="f32"/>
			<output>
				<port id="0" precision="FP32"/>
			</output>
		</layer>
		<layer id="414" name="133661337048545" type="Const" version="opset1">
			<data offset="114284" size="4" shape="" element_type="f32"/>
			<output>
				<port id="0" precision="FP32"/>
			</output>
		</layer>
		<layer id="415" name="133671337151971" type="Const" version="opset1">
			<data offset="114288" size="4" shape="" element_type="f32"/>
			<output>
				<port id="0" precision="FP32"/>
			</output>
		</layer>
		<layer id="416" name="181801818446613" type="Const" version="opset1">
			<data offset="114292" size="576" shape="1,144,1,1" element_type="f32"/>
			<output>
				<port id="0" precision="FP32">
					<dim>1</dim>
					<dim>144</dim>
					<dim>1</dim>
					<dim>1</dim>
				</port>
			</output>
		</layer>
		<layer id="417" name="181811818546403" type="Const" version="opset1">
			<data offset="114868" size="576" shape="1,144,1,1" element_type="f32"/>
			<output>
				<port id="0" precision="FP32">
					<dim>1</dim>
					<dim>144</dim>
					<dim>1</dim>
					<dim>1</dim>
				</port>
			</output>
		</layer>
		<layer id="418" name="181821818649007" type="Const" version="opset1">
			<data offset="114292" size="576" shape="1,144,1,1" element_type="f32"/>
			<output>
				<port id="0" precision="FP32">
					<dim>1</dim>
					<dim>144</dim>
					<dim>1</dim>
					<dim>1</dim>
				</port>
			</output>
		</layer>
		<layer id="419" name="181831818749478" type="Const" version="opset1">
			<data offset="114868" size="576" shape="1,144,1,1" element_type="f32"/>
			<output>
				<port id="0" precision="FP32">
					<dim>1</dim>
					<dim>144</dim>
					<dim>1</dim>
					<dim>1</dim>
				</port>
			</output>
		</layer>
		<layer id="420" name="126141261850204" type="Const" version="opset1">
			<data offset="115444" size="4" shape="" element_type="f32"/>
			<output>
				<port id="0" precision="FP32"/>
			</output>
		</layer>
		<layer id="421" name="126151261947069" type="Const" version="opset1">
			<data offset="115448" size="4" shape="" element_type="f32"/>
			<output>
				<port id="0" precision="FP32"/>
			</output>
		</layer>
		<layer id="422" name="126161262051587" type="Const" version="opset1">
			<data offset="115444" size="4" shape="" element_type="f32"/>
			<output>
				<port id="0" precision="FP32"/>
			</output>
		</layer>
		<layer id="423" name="126171262146109" type="Const" version="opset1">
			<data offset="115448" size="4" shape="" element_type="f32"/>
			<output>
				<port id="0" precision="FP32"/>
			</output>
		</layer>
		<layer id="424" name="134641346848620" type="Const" version="opset1">
			<data offset="115452" size="4" shape="" element_type="f32"/>
			<output>
				<port id="0" precision="FP32"/>
			</output>
		</layer>
		<layer id="425" name="134651346952043" type="Const" version="opset1">
			<data offset="115456" size="4" shape="" element_type="f32"/>
			<output>
				<port id="0" precision="FP32"/>
			</output>
		</layer>
		<layer id="426" name="134661347047063" type="Const" version="opset1">
			<data offset="115452" size="4" shape="" element_type="f32"/>
			<output>
				<port id="0" precision="FP32"/>
			</output>
		</layer>
		<layer id="427" name="134671347149115" type="Const" version="opset1">
			<data offset="115456" size="4" shape="" element_type="f32"/>
			<output>
				<port id="0" precision="FP32"/>
			</output>
		</layer>
		<layer id="428" name="147541475846154" type="Const" version="opset1">
			<data offset="115460" size="4" shape="" element_type="f32"/>
			<output>
				<port id="0" precision="FP32"/>
			</output>
		</layer>
		<layer id="429" name="147551475952001" type="Const" version="opset1">
			<data offset="115464" size="4" shape="" element_type="f32"/>
			<output>
				<port id="0" precision="FP32"/>
			</output>
		</layer>
		<layer id="430" name="147561476047255" type="Const" version="opset1">
			<data offset="115460" size="4" shape="" element_type="f32"/>
			<output>
				<port id="0" precision="FP32"/>
			</output>
		</layer>
		<layer id="431" name="147571476151458" type="Const" version="opset1">
			<data offset="115464" size="4" shape="" element_type="f32"/>
			<output>
				<port id="0" precision="FP32"/>
			</output>
		</layer>
		<layer id="432" name="143741437849829" type="Const" version="opset1">
			<data offset="40" size="4" shape="" element_type="f32"/>
			<output>
				<port id="0" precision="FP32"/>
			</output>
		</layer>
		<layer id="433" name="143751437952367" type="Const" version="opset1">
			<data offset="115468" size="4" shape="" element_type="f32"/>
			<output>
				<port id="0" precision="FP32"/>
			</output>
		</layer>
		<layer id="434" name="143761438050111" type="Const" version="opset1">
			<data offset="40" size="4" shape="" element_type="f32"/>
			<output>
				<port id="0" precision="FP32"/>
			</output>
		</layer>
		<layer id="435" name="143771438147441" type="Const" version="opset1">
			<data offset="115468" size="4" shape="" element_type="f32"/>
			<output>
				<port id="0" precision="FP32"/>
			</output>
		</layer>
		<layer id="436" name="132941329849910" type="Const" version="opset1">
			<data offset="115472" size="4" shape="" element_type="f32"/>
			<output>
				<port id="0" precision="FP32"/>
			</output>
		</layer>
		<layer id="437" name="132951329948566" type="Const" version="opset1">
			<data offset="115476" size="4" shape="" element_type="f32"/>
			<output>
				<port id="0" precision="FP32"/>
			</output>
		</layer>
		<layer id="438" name="132961330049142" type="Const" version="opset1">
			<data offset="115472" size="4" shape="" element_type="f32"/>
			<output>
				<port id="0" precision="FP32"/>
			</output>
		</layer>
		<layer id="439" name="132971330146190" type="Const" version="opset1">
			<data offset="115476" size="4" shape="" element_type="f32"/>
			<output>
				<port id="0" precision="FP32"/>
			</output>
		</layer>
		<layer id="440" name="181701817448800" type="Const" version="opset1">
			<data offset="115480" size="576" shape="1,144,1,1" element_type="f32"/>
			<output>
				<port id="0" precision="FP32">
					<dim>1</dim>
					<dim>144</dim>
					<dim>1</dim>
					<dim>1</dim>
				</port>
			</output>
		</layer>
		<layer id="441" name="181711817550954" type="Const" version="opset1">
			<data offset="116056" size="576" shape="1,144,1,1" element_type="f32"/>
			<output>
				<port id="0" precision="FP32">
					<dim>1</dim>
					<dim>144</dim>
					<dim>1</dim>
					<dim>1</dim>
				</port>
			</output>
		</layer>
		<layer id="442" name="181721817649304" type="Const" version="opset1">
			<data offset="115480" size="576" shape="1,144,1,1" element_type="f32"/>
			<output>
				<port id="0" precision="FP32">
					<dim>1</dim>
					<dim>144</dim>
					<dim>1</dim>
					<dim>1</dim>
				</port>
			</output>
		</layer>
		<layer id="443" name="181731817747108" type="Const" version="opset1">
			<data offset="116056" size="576" shape="1,144,1,1" element_type="f32"/>
			<output>
				<port id="0" precision="FP32">
					<dim>1</dim>
					<dim>144</dim>
					<dim>1</dim>
					<dim>1</dim>
				</port>
			</output>
		</layer>
		<layer id="444" name="134741347852070" type="Const" version="opset1">
			<data offset="116632" size="4" shape="" element_type="f32"/>
			<output>
				<port id="0" precision="FP32"/>
			</output>
		</layer>
		<layer id="445" name="134751347947525" type="Const" version="opset1">
			<data offset="116636" size="4" shape="" element_type="f32"/>
			<output>
				<port id="0" precision="FP32"/>
			</output>
		</layer>
		<layer id="446" name="134761348048896" type="Const" version="opset1">
			<data offset="116632" size="4" shape="" element_type="f32"/>
			<output>
				<port id="0" precision="FP32"/>
			</output>
		</layer>
		<layer id="447" name="134771348147285" type="Const" version="opset1">
			<data offset="116636" size="4" shape="" element_type="f32"/>
			<output>
				<port id="0" precision="FP32"/>
			</output>
		</layer>
		<layer id="448" name="130141301849622" type="Const" version="opset1">
			<data offset="116640" size="4" shape="" element_type="f32"/>
			<output>
				<port id="0" precision="FP32"/>
			</output>
		</layer>
		<layer id="449" name="130151301947894" type="Const" version="opset1">
			<data offset="116644" size="4" shape="" element_type="f32"/>
			<output>
				<port id="0" precision="FP32"/>
			</output>
		</layer>
		<layer id="450" name="130161302046523" type="Const" version="opset1">
			<data offset="116640" size="4" shape="" element_type="f32"/>
			<output>
				<port id="0" precision="FP32"/>
			</output>
		</layer>
		<layer id="451" name="130171302149400" type="Const" version="opset1">
			<data offset="116644" size="4" shape="" element_type="f32"/>
			<output>
				<port id="0" precision="FP32"/>
			</output>
		</layer>
		<layer id="452" name="134841348851770" type="Const" version="opset1">
			<data offset="116648" size="4" shape="" element_type="f32"/>
			<output>
				<port id="0" precision="FP32"/>
			</output>
		</layer>
		<layer id="453" name="134851348952316" type="Const" version="opset1">
			<data offset="116652" size="4" shape="" element_type="f32"/>
			<output>
				<port id="0" precision="FP32"/>
			</output>
		</layer>
		<layer id="454" name="134861349051923" type="Const" version="opset1">
			<data offset="116648" size="4" shape="" element_type="f32"/>
			<output>
				<port id="0" precision="FP32"/>
			</output>
		</layer>
		<layer id="455" name="134871349149160" type="Const" version="opset1">
			<data offset="116652" size="4" shape="" element_type="f32"/>
			<output>
				<port id="0" precision="FP32"/>
			</output>
		</layer>
		<layer id="456" name="149441494851233" type="Const" version="opset1">
			<data offset="40" size="4" shape="" element_type="f32"/>
			<output>
				<port id="0" precision="FP32"/>
			</output>
		</layer>
		<layer id="457" name="149451494950303" type="Const" version="opset1">
			<data offset="116656" size="4" shape="" element_type="f32"/>
			<output>
				<port id="0" precision="FP32"/>
			</output>
		</layer>
		<layer id="458" name="149461495048308" type="Const" version="opset1">
			<data offset="40" size="4" shape="" element_type="f32"/>
			<output>
				<port id="0" precision="FP32"/>
			</output>
		</layer>
		<layer id="459" name="149471495148878" type="Const" version="opset1">
			<data offset="116656" size="4" shape="" element_type="f32"/>
			<output>
				<port id="0" precision="FP32"/>
			</output>
		</layer>
		<layer id="460" name="139541395851239" type="Const" version="opset1">
			<data offset="116660" size="4" shape="" element_type="f32"/>
			<output>
				<port id="0" precision="FP32"/>
			</output>
		</layer>
		<layer id="461" name="139551395949172" type="Const" version="opset1">
			<data offset="116664" size="4" shape="" element_type="f32"/>
			<output>
				<port id="0" precision="FP32"/>
			</output>
		</layer>
		<layer id="462" name="139561396046325" type="Const" version="opset1">
			<data offset="116660" size="4" shape="" element_type="f32"/>
			<output>
				<port id="0" precision="FP32"/>
			</output>
		</layer>
		<layer id="463" name="139571396150678" type="Const" version="opset1">
			<data offset="116664" size="4" shape="" element_type="f32"/>
			<output>
				<port id="0" precision="FP32"/>
			</output>
		</layer>
		<layer id="464" name="181601816451437" type="Const" version="opset1">
			<data offset="116668" size="576" shape="1,144,1,1" element_type="f32"/>
			<output>
				<port id="0" precision="FP32">
					<dim>1</dim>
					<dim>144</dim>
					<dim>1</dim>
					<dim>1</dim>
				</port>
			</output>
		</layer>
		<layer id="465" name="181611816551719" type="Const" version="opset1">
			<data offset="117244" size="576" shape="1,144,1,1" element_type="f32"/>
			<output>
				<port id="0" precision="FP32">
					<dim>1</dim>
					<dim>144</dim>
					<dim>1</dim>
					<dim>1</dim>
				</port>
			</output>
		</layer>
		<layer id="466" name="181621816650426" type="Const" version="opset1">
			<data offset="116668" size="576" shape="1,144,1,1" element_type="f32"/>
			<output>
				<port id="0" precision="FP32">
					<dim>1</dim>
					<dim>144</dim>
					<dim>1</dim>
					<dim>1</dim>
				</port>
			</output>
		</layer>
		<layer id="467" name="181631816748512" type="Const" version="opset1">
			<data offset="117244" size="576" shape="1,144,1,1" element_type="f32"/>
			<output>
				<port id="0" precision="FP32">
					<dim>1</dim>
					<dim>144</dim>
					<dim>1</dim>
					<dim>1</dim>
				</port>
			</output>
		</layer>
		<layer id="468" name="130241302846907" type="Const" version="opset1">
			<data offset="117820" size="4" shape="" element_type="f32"/>
			<output>
				<port id="0" precision="FP32"/>
			</output>
		</layer>
		<layer id="469" name="130251302947783" type="Const" version="opset1">
			<data offset="117824" size="4" shape="" element_type="f32"/>
			<output>
				<port id="0" precision="FP32"/>
			</output>
		</layer>
		<layer id="470" name="130261303046697" type="Const" version="opset1">
			<data offset="117820" size="4" shape="" element_type="f32"/>
			<output>
				<port id="0" precision="FP32"/>
			</output>
		</layer>
		<layer id="471" name="130271303151257" type="Const" version="opset1">
			<data offset="117824" size="4" shape="" element_type="f32"/>
			<output>
				<port id="0" precision="FP32"/>
			</output>
		</layer>
		<layer id="472" name="133841338851593" type="Const" version="opset1">
			<data offset="117828" size="4" shape="" element_type="f32"/>
			<output>
				<port id="0" precision="FP32"/>
			</output>
		</layer>
		<layer id="473" name="133851338948935" type="Const" version="opset1">
			<data offset="117832" size="4" shape="" element_type="f32"/>
			<output>
				<port id="0" precision="FP32"/>
			</output>
		</layer>
		<layer id="474" name="133861339047570" type="Const" version="opset1">
			<data offset="117828" size="4" shape="" element_type="f32"/>
			<output>
				<port id="0" precision="FP32"/>
			</output>
		</layer>
		<layer id="475" name="133871339146082" type="Const" version="opset1">
			<data offset="117832" size="4" shape="" element_type="f32"/>
			<output>
				<port id="0" precision="FP32"/>
			</output>
		</layer>
		<layer id="476" name="135741357847054" type="Const" version="opset1">
			<data offset="40" size="4" shape="" element_type="f32"/>
			<output>
				<port id="0" precision="FP32"/>
			</output>
		</layer>
		<layer id="477" name="135751357949445" type="Const" version="opset1">
			<data offset="117836" size="4" shape="" element_type="f32"/>
			<output>
				<port id="0" precision="FP32"/>
			</output>
		</layer>
		<layer id="478" name="135761358050783" type="Const" version="opset1">
			<data offset="40" size="4" shape="" element_type="f32"/>
			<output>
				<port id="0" precision="FP32"/>
			</output>
		</layer>
		<layer id="479" name="135771358146106" type="Const" version="opset1">
			<data offset="117836" size="4" shape="" element_type="f32"/>
			<output>
				<port id="0" precision="FP32"/>
			</output>
		</layer>
		<layer id="480" name="122741227847417" type="Const" version="opset1">
			<data offset="117840" size="4" shape="" element_type="f32"/>
			<output>
				<port id="0" precision="FP32"/>
			</output>
		</layer>
		<layer id="481" name="122751227951527" type="Const" version="opset1">
			<data offset="117844" size="4" shape="" element_type="f32"/>
			<output>
				<port id="0" precision="FP32"/>
			</output>
		</layer>
		<layer id="482" name="122761228051314" type="Const" version="opset1">
			<data offset="117840" size="4" shape="" element_type="f32"/>
			<output>
				<port id="0" precision="FP32"/>
			</output>
		</layer>
		<layer id="483" name="122771228148794" type="Const" version="opset1">
			<data offset="117844" size="4" shape="" element_type="f32"/>
			<output>
				<port id="0" precision="FP32"/>
			</output>
		</layer>
		<layer id="484" name="181501815448692" type="Const" version="opset1">
			<data offset="117848" size="384" shape="1,96,1,1" element_type="f32"/>
			<output>
				<port id="0" precision="FP32">
					<dim>1</dim>
					<dim>96</dim>
					<dim>1</dim>
					<dim>1</dim>
				</port>
			</output>
		</layer>
		<layer id="485" name="181511815548605" type="Const" version="opset1">
			<data offset="118232" size="384" shape="1,96,1,1" element_type="f32"/>
			<output>
				<port id="0" precision="FP32">
					<dim>1</dim>
					<dim>96</dim>
					<dim>1</dim>
					<dim>1</dim>
				</port>
			</output>
		</layer>
		<layer id="486" name="181521815651035" type="Const" version="opset1">
			<data offset="117848" size="384" shape="1,96,1,1" element_type="f32"/>
			<output>
				<port id="0" precision="FP32">
					<dim>1</dim>
					<dim>96</dim>
					<dim>1</dim>
					<dim>1</dim>
				</port>
			</output>
		</layer>
		<layer id="487" name="181531815751245" type="Const" version="opset1">
			<data offset="118232" size="384" shape="1,96,1,1" element_type="f32"/>
			<output>
				<port id="0" precision="FP32">
					<dim>1</dim>
					<dim>96</dim>
					<dim>1</dim>
					<dim>1</dim>
				</port>
			</output>
		</layer>
		<layer id="488" name="151641516848887" type="Const" version="opset1">
			<data offset="118616" size="4" shape="" element_type="f32"/>
			<output>
				<port id="0" precision="FP32"/>
			</output>
		</layer>
		<layer id="489" name="151651516946721" type="Const" version="opset1">
			<data offset="118620" size="4" shape="" element_type="f32"/>
			<output>
				<port id="0" precision="FP32"/>
			</output>
		</layer>
		<layer id="490" name="151661517048797" type="Const" version="opset1">
			<data offset="118616" size="4" shape="" element_type="f32"/>
			<output>
				<port id="0" precision="FP32"/>
			</output>
		</layer>
		<layer id="491" name="151671517146928" type="Const" version="opset1">
			<data offset="118620" size="4" shape="" element_type="f32"/>
			<output>
				<port id="0" precision="FP32"/>
			</output>
		</layer>
		<layer id="492" name="140941409848317" type="Const" version="opset1">
			<data offset="118624" size="4" shape="" element_type="f32"/>
			<output>
				<port id="0" precision="FP32"/>
			</output>
		</layer>
		<layer id="493" name="140951409949847" type="Const" version="opset1">
			<data offset="118628" size="4" shape="" element_type="f32"/>
			<output>
				<port id="0" precision="FP32"/>
			</output>
		</layer>
		<layer id="494" name="140961410051764" type="Const" version="opset1">
			<data offset="118624" size="4" shape="" element_type="f32"/>
			<output>
				<port id="0" precision="FP32"/>
			</output>
		</layer>
		<layer id="495" name="140971410145968" type="Const" version="opset1">
			<data offset="118628" size="4" shape="" element_type="f32"/>
			<output>
				<port id="0" precision="FP32"/>
			</output>
		</layer>
		<layer id="496" name="136041360846430" type="Const" version="opset1">
			<data offset="118632" size="4" shape="" element_type="f32"/>
			<output>
				<port id="0" precision="FP32"/>
			</output>
		</layer>
		<layer id="497" name="136051360946028" type="Const" version="opset1">
			<data offset="118636" size="4" shape="" element_type="f32"/>
			<output>
				<port id="0" precision="FP32"/>
			</output>
		</layer>
		<layer id="498" name="136061361047918" type="Const" version="opset1">
			<data offset="118632" size="4" shape="" element_type="f32"/>
			<output>
				<port id="0" precision="FP32"/>
			</output>
		</layer>
		<layer id="499" name="136071361150960" type="Const" version="opset1">
			<data offset="118636" size="4" shape="" element_type="f32"/>
			<output>
				<port id="0" precision="FP32"/>
			</output>
		</layer>
		<layer id="500" name="137541375848845" type="Const" version="opset1">
			<data offset="40" size="4" shape="" element_type="f32"/>
			<output>
				<port id="0" precision="FP32"/>
			</output>
		</layer>
		<layer id="501" name="137551375951497" type="Const" version="opset1">
			<data offset="118640" size="4" shape="" element_type="f32"/>
			<output>
				<port id="0" precision="FP32"/>
			</output>
		</layer>
		<layer id="502" name="137561376051782" type="Const" version="opset1">
			<data offset="40" size="4" shape="" element_type="f32"/>
			<output>
				<port id="0" precision="FP32"/>
			</output>
		</layer>
		<layer id="503" name="137571376147732" type="Const" version="opset1">
			<data offset="118640" size="4" shape="" element_type="f32"/>
			<output>
				<port id="0" precision="FP32"/>
			</output>
		</layer>
		<layer id="504" name="124241242851095" type="Const" version="opset1">
			<data offset="118644" size="4" shape="" element_type="f32"/>
			<output>
				<port id="0" precision="FP32"/>
			</output>
		</layer>
		<layer id="505" name="124251242948281" type="Const" version="opset1">
			<data offset="118648" size="4" shape="" element_type="f32"/>
			<output>
				<port id="0" precision="FP32"/>
			</output>
		</layer>
		<layer id="506" name="124261243047396" type="Const" version="opset1">
			<data offset="118644" size="4" shape="" element_type="f32"/>
			<output>
				<port id="0" precision="FP32"/>
			</output>
		</layer>
		<layer id="507" name="124271243148767" type="Const" version="opset1">
			<data offset="118648" size="4" shape="" element_type="f32"/>
			<output>
				<port id="0" precision="FP32"/>
			</output>
		</layer>
		<layer id="508" name="141041410847843" type="Const" version="opset1">
			<data offset="118652" size="4" shape="" element_type="f32"/>
			<output>
				<port id="0" precision="FP32"/>
			</output>
		</layer>
		<layer id="509" name="141051410946238" type="Const" version="opset1">
			<data offset="118656" size="4" shape="" element_type="f32"/>
			<output>
				<port id="0" precision="FP32"/>
			</output>
		</layer>
		<layer id="510" name="141061411052280" type="Const" version="opset1">
			<data offset="118652" size="4" shape="" element_type="f32"/>
			<output>
				<port id="0" precision="FP32"/>
			</output>
		</layer>
		<layer id="511" name="141071411148209" type="Const" version="opset1">
			<data offset="118656" size="4" shape="" element_type="f32"/>
			<output>
				<port id="0" precision="FP32"/>
			</output>
		</layer>
		<layer id="512" name="138341383849565" type="Const" version="opset1">
			<data offset="118660" size="4" shape="" element_type="f32"/>
			<output>
				<port id="0" precision="FP32"/>
			</output>
		</layer>
		<layer id="513" name="138351383951611" type="Const" version="opset1">
			<data offset="118664" size="4" shape="" element_type="f32"/>
			<output>
				<port id="0" precision="FP32"/>
			</output>
		</layer>
		<layer id="514" name="138361384049919" type="Const" version="opset1">
			<data offset="118660" size="4" shape="" element_type="f32"/>
			<output>
				<port id="0" precision="FP32"/>
			</output>
		</layer>
		<layer id="515" name="138371384148551" type="Const" version="opset1">
			<data offset="118664" size="4" shape="" element_type="f32"/>
			<output>
				<port id="0" precision="FP32"/>
			</output>
		</layer>
		<layer id="516" name="133541335846040" type="Const" version="opset1">
			<data offset="40" size="4" shape="" element_type="f32"/>
			<output>
				<port id="0" precision="FP32"/>
			</output>
		</layer>
		<layer id="517" name="133551335948941" type="Const" version="opset1">
			<data offset="118668" size="4" shape="" element_type="f32"/>
			<output>
				<port id="0" precision="FP32"/>
			</output>
		</layer>
		<layer id="518" name="133561336049574" type="Const" version="opset1">
			<data offset="40" size="4" shape="" element_type="f32"/>
			<output>
				<port id="0" precision="FP32"/>
			</output>
		</layer>
		<layer id="519" name="133571336147705" type="Const" version="opset1">
			<data offset="118668" size="4" shape="" element_type="f32"/>
			<output>
				<port id="0" precision="FP32"/>
			</output>
		</layer>
		<layer id="520" name="150541505851635" type="Const" version="opset1">
			<data offset="118672" size="4" shape="" element_type="f32"/>
			<output>
				<port id="0" precision="FP32"/>
			</output>
		</layer>
		<layer id="521" name="150551505948176" type="Const" version="opset1">
			<data offset="118676" size="4" shape="" element_type="f32"/>
			<output>
				<port id="0" precision="FP32"/>
			</output>
		</layer>
		<layer id="522" name="150561506046991" type="Const" version="opset1">
			<data offset="118672" size="4" shape="" element_type="f32"/>
			<output>
				<port id="0" precision="FP32"/>
			</output>
		</layer>
		<layer id="523" name="150571506150285" type="Const" version="opset1">
			<data offset="118676" size="4" shape="" element_type="f32"/>
			<output>
				<port id="0" precision="FP32"/>
			</output>
		</layer>
		<layer id="524" name="180501805450105" type="Const" version="opset1">
			<data offset="118680" size="128" shape="1,32,1,1" element_type="f32"/>
			<output>
				<port id="0" precision="FP32">
					<dim>1</dim>
					<dim>32</dim>
					<dim>1</dim>
					<dim>1</dim>
				</port>
			</output>
		</layer>
		<layer id="525" name="180511805551839" type="Const" version="opset1">
			<data offset="118808" size="128" shape="1,32,1,1" element_type="f32"/>
			<output>
				<port id="0" precision="FP32">
					<dim>1</dim>
					<dim>32</dim>
					<dim>1</dim>
					<dim>1</dim>
				</port>
			</output>
		</layer>
		<layer id="526" name="180521805651869" type="Const" version="opset1">
			<data offset="118680" size="128" shape="1,32,1,1" element_type="f32"/>
			<output>
				<port id="0" precision="FP32">
					<dim>1</dim>
					<dim>32</dim>
					<dim>1</dim>
					<dim>1</dim>
				</port>
			</output>
		</layer>
		<layer id="527" name="180531805749961" type="Const" version="opset1">
			<data offset="118808" size="128" shape="1,32,1,1" element_type="f32"/>
			<output>
				<port id="0" precision="FP32">
					<dim>1</dim>
					<dim>32</dim>
					<dim>1</dim>
					<dim>1</dim>
				</port>
			</output>
		</layer>
		<layer id="528" name="182101821447423" type="Const" version="opset1">
			<data offset="118936" size="4" shape="" element_type="f32"/>
			<output>
				<port id="0" precision="FP32"/>
			</output>
		</layer>
		<layer id="529" name="182111821550231" type="Const" version="opset1">
			<data offset="118940" size="4" shape="" element_type="f32"/>
			<output>
				<port id="0" precision="FP32"/>
			</output>
		</layer>
		<layer id="530" name="182121821650774" type="Const" version="opset1">
			<data offset="118936" size="4" shape="" element_type="f32"/>
			<output>
				<port id="0" precision="FP32"/>
			</output>
		</layer>
		<layer id="531" name="182131821746244" type="Const" version="opset1">
			<data offset="118940" size="4" shape="" element_type="f32"/>
			<output>
				<port id="0" precision="FP32"/>
			</output>
		</layer>
		<layer id="533" name="Constant_25716337047897" type="Const" version="opset1">
			<data offset="118944" size="6" shape="1,3,1,1" element_type="f16"/>
			<output>
				<port id="0" precision="FP16">
					<dim>1</dim>
					<dim>3</dim>
					<dim>1</dim>
					<dim>1</dim>
				</port>
			</output>
		</layer>
		<layer id="534" name="Constant_25716337028013/restored_convert" type="Convert" version="opset1">
			<data destination_type="f32"/>
			<rt_info>
				<attribute name="decompression" version="0"/>
			</rt_info>
			<input>
				<port id="0">
					<dim>1</dim>
					<dim>3</dim>
					<dim>1</dim>
					<dim>1</dim>
				</port>
			</input>
			<output>
				<port id="1" precision="FP32">
					<dim>1</dim>
					<dim>3</dim>
					<dim>1</dim>
					<dim>1</dim>
				</port>
			</output>
		</layer>
		<layer id="535" name="Subtract_25717" type="Subtract" version="opset1">
			<data auto_broadcast="numpy"/>
			<rt_info>
				<attribute name="preprocessing" version="0"/>
			</rt_info>
			<input>
				<port id="0">
					<dim>1</dim>
					<dim>3</dim>
					<dim>608</dim>
					<dim>608</dim>
				</port>
				<port id="1">
					<dim>1</dim>
					<dim>3</dim>
					<dim>1</dim>
					<dim>1</dim>
				</port>
			</input>
			<output>
				<port id="2" precision="FP32">
					<dim>1</dim>
					<dim>3</dim>
					<dim>608</dim>
					<dim>608</dim>
				</port>
			</output>
		</layer>
		<layer id="536" name="Pad_63/fq_input_0" type="FakeQuantize" version="opset1">
			<data levels="256" auto_broadcast="numpy"/>
			<input>
				<port id="0">
					<dim>1</dim>
					<dim>3</dim>
					<dim>608</dim>
					<dim>608</dim>
				</port>
				<port id="1"/>
				<port id="2"/>
				<port id="3"/>
				<port id="4"/>
			</input>
			<output>
				<port id="5" precision="FP32">
					<dim>1</dim>
					<dim>3</dim>
					<dim>608</dim>
					<dim>608</dim>
				</port>
			</output>
		</layer>
		<layer id="537" name="608341851431" type="Const" version="opset1">
			<data offset="118950" size="2" shape="" element_type="f16"/>
			<output>
				<port id="0" precision="FP16"/>
			</output>
		</layer>
		<layer id="538" name="608341828036/restored_convert" type="Convert" version="opset1">
			<data destination_type="f32"/>
			<rt_info>
				<attribute name="decompression" version="0"/>
			</rt_info>
			<input>
				<port id="0"/>
			</input>
			<output>
				<port id="1" precision="FP32" names="608"/>
			</output>
		</layer>
		<layer id="539" name="555337248740" type="Const" version="opset1">
			<data offset="118952" size="8" shape="" element_type="i64"/>
			<output>
				<port id="0" precision="I64" names="555"/>
			</output>
		</layer>
		<layer id="540" name="Shape_6" type="ShapeOf" version="opset3">
			<data output_type="i64"/>
			<input>
				<port id="0">
					<dim>1</dim>
					<dim>3</dim>
					<dim>608</dim>
					<dim>608</dim>
				</port>
			</input>
			<output>
				<port id="1" precision="I64" names="543,549,552">
					<dim>4</dim>
				</port>
			</output>
		</layer>
		<layer id="541" name="5503374" type="Const" version="opset1">
			<data offset="118960" size="4" shape="" element_type="i32"/>
			<output>
				<port id="0" precision="I32" names="550"/>
			</output>
		</layer>
		<layer id="542" name="Constant_10293375" type="Const" version="opset1">
			<data offset="118964" size="8" shape="" element_type="i64"/>
			<output>
				<port id="0" precision="I64"/>
			</output>
		</layer>
		<layer id="543" name="Gather_8" type="Gather" version="opset8">
			<data batch_dims="0"/>
			<input>
				<port id="0">
					<dim>4</dim>
				</port>
				<port id="1"/>
				<port id="2"/>
			</input>
			<output>
				<port id="3" precision="I64" names="551"/>
			</output>
		</layer>
		<layer id="544" name="Sub_13" type="Subtract" version="opset1">
			<data auto_broadcast="numpy"/>
			<input>
				<port id="0"/>
				<port id="1"/>
			</input>
			<output>
				<port id="2" precision="I64" names="556"/>
			</output>
		</layer>
		<layer id="545" name="559337846646" type="Const" version="opset1">
			<data offset="118972" size="8" shape="" element_type="i64"/>
			<output>
				<port id="0" precision="I64" names="559"/>
			</output>
		</layer>
		<layer id="546" name="Div_17" type="Divide" version="opset1">
			<data auto_broadcast="numpy"/>
			<input>
				<port id="0"/>
				<port id="1"/>
			</input>
			<output>
				<port id="2" precision="I64" names="560,561,562"/>
			</output>
		</layer>
		<layer id="547" name="Constant_1059338049016" type="Const" version="opset1">
			<data offset="118964" size="8" shape="1" element_type="i64"/>
			<output>
				<port id="0" precision="I64">
					<dim>1</dim>
				</port>
			</output>
		</layer>
		<layer id="548" name="Unsqueeze_39" type="Unsqueeze" version="opset1">
			<input>
				<port id="0"/>
				<port id="1">
					<dim>1</dim>
				</port>
			</input>
			<output>
				<port id="2" precision="I64" names="582">
					<dim>1</dim>
				</port>
			</output>
		</layer>
		<layer id="549" name="563338249817" type="Const" version="opset1">
			<data offset="118972" size="8" shape="" element_type="i64"/>
			<output>
				<port id="0" precision="I64" names="563"/>
			</output>
		</layer>
		<layer id="550" name="Div_21" type="Divide" version="opset1">
			<data auto_broadcast="numpy"/>
			<input>
				<port id="0"/>
				<port id="1"/>
			</input>
			<output>
				<port id="2" precision="I64" names="564,565,566"/>
			</output>
		</layer>
		<layer id="551" name="Sub_24" type="Subtract" version="opset1">
			<data auto_broadcast="numpy"/>
			<input>
				<port id="0"/>
				<port id="1"/>
			</input>
			<output>
				<port id="2" precision="I64" names="567"/>
			</output>
		</layer>
		<layer id="552" name="Constant_1061338546973" type="Const" version="opset1">
			<data offset="118964" size="8" shape="1" element_type="i64"/>
			<output>
				<port id="0" precision="I64">
					<dim>1</dim>
				</port>
			</output>
		</layer>
		<layer id="553" name="Unsqueeze_40" type="Unsqueeze" version="opset1">
			<input>
				<port id="0"/>
				<port id="1">
					<dim>1</dim>
				</port>
			</input>
			<output>
				<port id="2" precision="I64" names="583">
					<dim>1</dim>
				</port>
			</output>
		</layer>
		<layer id="554" name="557338747402" type="Const" version="opset1">
			<data offset="118952" size="8" shape="" element_type="i64"/>
			<output>
				<port id="0" precision="I64" names="557"/>
			</output>
		</layer>
		<layer id="555" name="5533388" type="Const" version="opset1">
			<data offset="118980" size="4" shape="" element_type="i32"/>
			<output>
				<port id="0" precision="I32" names="553"/>
			</output>
		</layer>
		<layer id="556" name="Constant_10323389" type="Const" version="opset1">
			<data offset="118964" size="8" shape="" element_type="i64"/>
			<output>
				<port id="0" precision="I64"/>
			</output>
		</layer>
		<layer id="557" name="Gather_11" type="Gather" version="opset8">
			<data batch_dims="0"/>
			<input>
				<port id="0">
					<dim>4</dim>
				</port>
				<port id="1"/>
				<port id="2"/>
			</input>
			<output>
				<port id="3" precision="I64" names="554"/>
			</output>
		</layer>
		<layer id="558" name="Sub_15" type="Subtract" version="opset1">
			<data auto_broadcast="numpy"/>
			<input>
				<port id="0"/>
				<port id="1"/>
			</input>
			<output>
				<port id="2" precision="I64" names="558"/>
			</output>
		</layer>
		<layer id="559" name="568339250903" type="Const" version="opset1">
			<data offset="118972" size="8" shape="" element_type="i64"/>
			<output>
				<port id="0" precision="I64" names="568"/>
			</output>
		</layer>
		<layer id="560" name="Div_26" type="Divide" version="opset1">
			<data auto_broadcast="numpy"/>
			<input>
				<port id="0"/>
				<port id="1"/>
			</input>
			<output>
				<port id="2" precision="I64" names="569,570,571"/>
			</output>
		</layer>
		<layer id="561" name="Constant_1063339446226" type="Const" version="opset1">
			<data offset="118964" size="8" shape="1" element_type="i64"/>
			<output>
				<port id="0" precision="I64">
					<dim>1</dim>
				</port>
			</output>
		</layer>
		<layer id="562" name="Unsqueeze_41" type="Unsqueeze" version="opset1">
			<input>
				<port id="0"/>
				<port id="1">
					<dim>1</dim>
				</port>
			</input>
			<output>
				<port id="2" precision="I64" names="584">
					<dim>1</dim>
				</port>
			</output>
		</layer>
		<layer id="563" name="572339650132" type="Const" version="opset1">
			<data offset="118972" size="8" shape="" element_type="i64"/>
			<output>
				<port id="0" precision="I64" names="572"/>
			</output>
		</layer>
		<layer id="564" name="Div_30" type="Divide" version="opset1">
			<data auto_broadcast="numpy"/>
			<input>
				<port id="0"/>
				<port id="1"/>
			</input>
			<output>
				<port id="2" precision="I64" names="573,574,575"/>
			</output>
		</layer>
		<layer id="565" name="Sub_33" type="Subtract" version="opset1">
			<data auto_broadcast="numpy"/>
			<input>
				<port id="0"/>
				<port id="1"/>
			</input>
			<output>
				<port id="2" precision="I64" names="576"/>
			</output>
		</layer>
		<layer id="566" name="Constant_1065339950444" type="Const" version="opset1">
			<data offset="118964" size="8" shape="1" element_type="i64"/>
			<output>
				<port id="0" precision="I64">
					<dim>1</dim>
				</port>
			</output>
		</layer>
		<layer id="567" name="Unsqueeze_42" type="Unsqueeze" version="opset1">
			<input>
				<port id="0"/>
				<port id="1">
					<dim>1</dim>
				</port>
			</input>
			<output>
				<port id="2" precision="I64" names="585">
					<dim>1</dim>
				</port>
			</output>
		</layer>
		<layer id="568" name="Concat_43" type="Concat" version="opset1">
			<data axis="0"/>
			<input>
				<port id="0">
					<dim>1</dim>
				</port>
				<port id="1">
					<dim>1</dim>
				</port>
				<port id="2">
					<dim>1</dim>
				</port>
				<port id="3">
					<dim>1</dim>
				</port>
			</input>
			<output>
				<port id="4" precision="I64" names="586,594">
					<dim>4</dim>
				</port>
			</output>
		</layer>
		<layer id="569" name="ConstantOfShape_49340250642" type="Const" version="opset1">
			<data offset="118984" size="32" shape="4" element_type="i64"/>
			<output>
				<port id="0" precision="I64" names="595">
					<dim>4</dim>
				</port>
			</output>
		</layer>
		<layer id="570" name="Concat_50" type="Concat" version="opset1">
			<data axis="0"/>
			<input>
				<port id="0">
					<dim>4</dim>
				</port>
				<port id="1">
					<dim>4</dim>
				</port>
			</input>
			<output>
				<port id="2" precision="I64" names="596">
					<dim>8</dim>
				</port>
			</output>
		</layer>
		<layer id="571" name="597340451407" type="Const" version="opset1">
			<data offset="119016" size="16" shape="2" element_type="i64"/>
			<output>
				<port id="0" precision="I64" names="597">
					<dim>2</dim>
				</port>
			</output>
		</layer>
		<layer id="572" name="Reshape_52" type="Reshape" version="opset1">
			<data special_zero="true"/>
			<input>
				<port id="0">
					<dim>8</dim>
				</port>
				<port id="1">
					<dim>2</dim>
				</port>
			</input>
			<output>
				<port id="2" precision="I64" names="598">
					<dim>4</dim>
					<dim>2</dim>
				</port>
			</output>
		</layer>
		<layer id="573" name="6003406" type="Const" version="opset1">
			<data offset="119032" size="8" shape="1" element_type="i64"/>
			<output>
				<port id="0" precision="I64" names="600">
					<dim>1</dim>
				</port>
			</output>
		</layer>
		<layer id="574" name="6013407" type="Const" version="opset1">
			<data offset="119040" size="8" shape="1" element_type="i64"/>
			<output>
				<port id="0" precision="I64" names="601">
					<dim>1</dim>
				</port>
			</output>
		</layer>
		<layer id="575" name="6023408" type="Const" version="opset1">
			<data offset="119032" size="8" shape="1" element_type="i64"/>
			<output>
				<port id="0" precision="I64" names="602">
					<dim>1</dim>
				</port>
			</output>
		</layer>
		<layer id="576" name="Slice_57" type="StridedSlice" version="opset1">
			<data begin_mask="0" end_mask="0" new_axis_mask="0" shrink_axis_mask="0" ellipsis_mask="0"/>
			<input>
				<port id="0">
					<dim>4</dim>
					<dim>2</dim>
				</port>
				<port id="1">
					<dim>1</dim>
				</port>
				<port id="2">
					<dim>1</dim>
				</port>
				<port id="3">
					<dim>1</dim>
				</port>
			</input>
			<output>
				<port id="4" precision="I64" names="603">
					<dim>4</dim>
					<dim>2</dim>
				</port>
			</output>
		</layer>
		<layer id="577" name="Constant_11043410" type="Const" version="opset1">
			<data offset="119048" size="16" shape="2" element_type="i64"/>
			<output>
				<port id="0" precision="I64">
					<dim>2</dim>
				</port>
			</output>
		</layer>
		<layer id="578" name="Transpose_58" type="Transpose" version="opset1">
			<input>
				<port id="0">
					<dim>4</dim>
					<dim>2</dim>
				</port>
				<port id="1">
					<dim>2</dim>
				</port>
			</input>
			<output>
				<port id="2" precision="I64" names="604">
					<dim>2</dim>
					<dim>4</dim>
				</port>
			</output>
		</layer>
		<layer id="579" name="605341247876" type="Const" version="opset1">
			<data offset="119032" size="8" shape="1" element_type="i64"/>
			<output>
				<port id="0" precision="I64" names="605">
					<dim>1</dim>
				</port>
			</output>
		</layer>
		<layer id="580" name="Reshape_60" type="Reshape" version="opset1">
			<data special_zero="true"/>
			<input>
				<port id="0">
					<dim>2</dim>
					<dim>4</dim>
				</port>
				<port id="1">
					<dim>1</dim>
				</port>
			</input>
			<output>
				<port id="2" precision="I64" names="606,607">
					<dim>8</dim>
				</port>
			</output>
		</layer>
		<layer id="581" name="Constant_1113341448641" type="Const" version="opset1">
			<data offset="118964" size="8" shape="" element_type="i64"/>
			<output>
				<port id="0" precision="I64"/>
			</output>
		</layer>
		<layer id="582" name="Split_1114" type="Split" version="opset1">
			<data num_splits="2"/>
			<input>
				<port id="0">
					<dim>8</dim>
				</port>
				<port id="1"/>
			</input>
			<output>
				<port id="2" precision="I64">
					<dim>4</dim>
				</port>
				<port id="3" precision="I64">
					<dim>4</dim>
				</port>
			</output>
		</layer>
		<layer id="583" name="Pad_63" type="Pad" version="opset1">
			<data pad_mode="constant"/>
			<input>
				<port id="0">
					<dim>1</dim>
					<dim>3</dim>
					<dim>608</dim>
					<dim>608</dim>
				</port>
				<port id="1">
					<dim>4</dim>
				</port>
				<port id="2">
					<dim>4</dim>
				</port>
				<port id="3"/>
			</input>
			<output>
				<port id="4" precision="FP32" names="609">
					<dim>1</dim>
					<dim>3</dim>
					<dim>609</dim>
					<dim>609</dim>
				</port>
			</output>
		</layer>
		<layer id="584" name="Conv_64/WithoutBiases/fq_weights_1/scale3170447750" type="Const" version="opset1">
			<data offset="119064" size="128" shape="32,1,1,1" element_type="f32"/>
			<output>
				<port id="0" precision="FP32">
					<dim>32</dim>
					<dim>1</dim>
					<dim>1</dim>
					<dim>1</dim>
				</port>
			</output>
		</layer>
		<layer id="585" name="3614342128037/restored_convert/quantized3169648815" type="Const" version="opset1">
			<data offset="119192" size="864" shape="32,3,3,3" element_type="i8"/>
			<output>
				<port id="0" precision="I8">
					<dim>32</dim>
					<dim>3</dim>
					<dim>3</dim>
					<dim>3</dim>
				</port>
			</output>
		</layer>
		<layer id="586" name="3614342128037/restored_convert/quantized/to_f32" type="Convert" version="opset1">
			<data destination_type="f32"/>
			<input>
				<port id="0">
					<dim>32</dim>
					<dim>3</dim>
					<dim>3</dim>
					<dim>3</dim>
				</port>
			</input>
			<output>
				<port id="1" precision="FP32">
					<dim>32</dim>
					<dim>3</dim>
					<dim>3</dim>
					<dim>3</dim>
				</port>
			</output>
		</layer>
		<layer id="587" name="Conv_64/WithoutBiases/fq_weights_1/mulpiply_by_scale" type="Multiply" version="opset1">
			<data auto_broadcast="numpy"/>
			<input>
				<port id="0">
					<dim>32</dim>
					<dim>3</dim>
					<dim>3</dim>
					<dim>3</dim>
				</port>
				<port id="1">
					<dim>32</dim>
					<dim>1</dim>
					<dim>1</dim>
					<dim>1</dim>
				</port>
			</input>
			<output>
				<port id="2" precision="FP32">
					<dim>32</dim>
					<dim>3</dim>
					<dim>3</dim>
					<dim>3</dim>
				</port>
			</output>
		</layer>
		<layer id="588" name="Conv_64/WithoutBiases" type="Convolution" version="opset1">
			<data auto_pad="explicit" strides="2,2" dilations="1,1" pads_begin="0,0" pads_end="0,0"/>
			<input>
				<port id="0">
					<dim>1</dim>
					<dim>3</dim>
					<dim>609</dim>
					<dim>609</dim>
				</port>
				<port id="1">
					<dim>32</dim>
					<dim>3</dim>
					<dim>3</dim>
					<dim>3</dim>
				</port>
			</input>
			<output>
				<port id="2" precision="FP32">
					<dim>1</dim>
					<dim>32</dim>
					<dim>304</dim>
					<dim>304</dim>
				</port>
			</output>
		</layer>
		<layer id="589" name="Reshape_1510342448122" type="Const" version="opset1">
			<data offset="120056" size="64" shape="1,32,1,1" element_type="f16"/>
			<output>
				<port id="0" precision="FP16">
					<dim>1</dim>
					<dim>32</dim>
					<dim>1</dim>
					<dim>1</dim>
				</port>
			</output>
		</layer>
		<layer id="590" name="Reshape_1510342428038/restored_convert" type="Convert" version="opset1">
			<data destination_type="f32"/>
			<rt_info>
				<attribute name="decompression" version="0"/>
			</rt_info>
			<input>
				<port id="0">
					<dim>1</dim>
					<dim>32</dim>
					<dim>1</dim>
					<dim>1</dim>
				</port>
			</input>
			<output>
				<port id="1" precision="FP32">
					<dim>1</dim>
					<dim>32</dim>
					<dim>1</dim>
					<dim>1</dim>
				</port>
			</output>
		</layer>
		<layer id="591" name="Conv_64" type="Add" version="opset1">
			<data auto_broadcast="numpy"/>
			<input>
				<port id="0">
					<dim>1</dim>
					<dim>32</dim>
					<dim>304</dim>
					<dim>304</dim>
				</port>
				<port id="1">
					<dim>1</dim>
					<dim>32</dim>
					<dim>1</dim>
					<dim>1</dim>
				</port>
			</input>
			<output>
				<port id="2" precision="FP32" names="3613">
					<dim>1</dim>
					<dim>32</dim>
					<dim>304</dim>
					<dim>304</dim>
				</port>
			</output>
		</layer>
		<layer id="592" name="Mul_66" type="Swish" version="opset4">
			<input>
				<port id="0">
					<dim>1</dim>
					<dim>32</dim>
					<dim>304</dim>
					<dim>304</dim>
				</port>
			</input>
			<output>
				<port id="1" precision="FP32" names="613">
					<dim>1</dim>
					<dim>32</dim>
					<dim>304</dim>
					<dim>304</dim>
				</port>
			</output>
		</layer>
		<layer id="593" name="Pad_124/fq_input_0" type="FakeQuantize" version="opset1">
			<data levels="256" auto_broadcast="numpy"/>
			<input>
				<port id="0">
					<dim>1</dim>
					<dim>32</dim>
					<dim>304</dim>
					<dim>304</dim>
				</port>
				<port id="1">
					<dim>1</dim>
					<dim>32</dim>
					<dim>1</dim>
					<dim>1</dim>
				</port>
				<port id="2">
					<dim>1</dim>
					<dim>32</dim>
					<dim>1</dim>
					<dim>1</dim>
				</port>
				<port id="3">
					<dim>1</dim>
					<dim>32</dim>
					<dim>1</dim>
					<dim>1</dim>
				</port>
				<port id="4">
					<dim>1</dim>
					<dim>32</dim>
					<dim>1</dim>
					<dim>1</dim>
				</port>
			</input>
			<output>
				<port id="5" precision="FP32">
					<dim>1</dim>
					<dim>32</dim>
					<dim>304</dim>
					<dim>304</dim>
				</port>
			</output>
		</layer>
		<layer id="594" name="673347350540" type="Const" version="opset1">
			<data offset="118950" size="2" shape="" element_type="f16"/>
			<output>
				<port id="0" precision="FP16"/>
			</output>
		</layer>
		<layer id="595" name="673347328061/restored_convert" type="Convert" version="opset1">
			<data destination_type="f32"/>
			<rt_info>
				<attribute name="decompression" version="0"/>
			</rt_info>
			<input>
				<port id="0"/>
			</input>
			<output>
				<port id="1" precision="FP32" names="673"/>
			</output>
		</layer>
		<layer id="596" name="620342750963" type="Const" version="opset1">
			<data offset="120120" size="8" shape="" element_type="i64"/>
			<output>
				<port id="0" precision="I64" names="620"/>
			</output>
		</layer>
		<layer id="597" name="Shape_67" type="ShapeOf" version="opset3">
			<data output_type="i64"/>
			<input>
				<port id="0">
					<dim>1</dim>
					<dim>32</dim>
					<dim>304</dim>
					<dim>304</dim>
				</port>
			</input>
			<output>
				<port id="1" precision="I64" names="614,617">
					<dim>4</dim>
				</port>
			</output>
		</layer>
		<layer id="598" name="6153429" type="Const" version="opset1">
			<data offset="118960" size="4" shape="" element_type="i32"/>
			<output>
				<port id="0" precision="I32" names="615"/>
			</output>
		</layer>
		<layer id="599" name="Constant_15413430" type="Const" version="opset1">
			<data offset="118964" size="8" shape="" element_type="i64"/>
			<output>
				<port id="0" precision="I64"/>
			</output>
		</layer>
		<layer id="600" name="Gather_69" type="Gather" version="opset8">
			<data batch_dims="0"/>
			<input>
				<port id="0">
					<dim>4</dim>
				</port>
				<port id="1"/>
				<port id="2"/>
			</input>
			<output>
				<port id="3" precision="I64" names="616"/>
			</output>
		</layer>
		<layer id="601" name="Sub_74" type="Subtract" version="opset1">
			<data auto_broadcast="numpy"/>
			<input>
				<port id="0"/>
				<port id="1"/>
			</input>
			<output>
				<port id="2" precision="I64" names="621"/>
			</output>
		</layer>
		<layer id="602" name="624343348854" type="Const" version="opset1">
			<data offset="118972" size="8" shape="" element_type="i64"/>
			<output>
				<port id="0" precision="I64" names="624"/>
			</output>
		</layer>
		<layer id="603" name="Div_78" type="Divide" version="opset1">
			<data auto_broadcast="numpy"/>
			<input>
				<port id="0"/>
				<port id="1"/>
			</input>
			<output>
				<port id="2" precision="I64" names="625,626,627"/>
			</output>
		</layer>
		<layer id="604" name="Constant_1571343546232" type="Const" version="opset1">
			<data offset="118964" size="8" shape="1" element_type="i64"/>
			<output>
				<port id="0" precision="I64">
					<dim>1</dim>
				</port>
			</output>
		</layer>
		<layer id="605" name="Unsqueeze_100" type="Unsqueeze" version="opset1">
			<input>
				<port id="0"/>
				<port id="1">
					<dim>1</dim>
				</port>
			</input>
			<output>
				<port id="2" precision="I64" names="647">
					<dim>1</dim>
				</port>
			</output>
		</layer>
		<layer id="606" name="628343748497" type="Const" version="opset1">
			<data offset="118972" size="8" shape="" element_type="i64"/>
			<output>
				<port id="0" precision="I64" names="628"/>
			</output>
		</layer>
		<layer id="607" name="Div_82" type="Divide" version="opset1">
			<data auto_broadcast="numpy"/>
			<input>
				<port id="0"/>
				<port id="1"/>
			</input>
			<output>
				<port id="2" precision="I64" names="629,630,631"/>
			</output>
		</layer>
		<layer id="608" name="Sub_85" type="Subtract" version="opset1">
			<data auto_broadcast="numpy"/>
			<input>
				<port id="0"/>
				<port id="1"/>
			</input>
			<output>
				<port id="2" precision="I64" names="632"/>
			</output>
		</layer>
		<layer id="609" name="Constant_1573344047081" type="Const" version="opset1">
			<data offset="118964" size="8" shape="1" element_type="i64"/>
			<output>
				<port id="0" precision="I64">
					<dim>1</dim>
				</port>
			</output>
		</layer>
		<layer id="610" name="Unsqueeze_101" type="Unsqueeze" version="opset1">
			<input>
				<port id="0"/>
				<port id="1">
					<dim>1</dim>
				</port>
			</input>
			<output>
				<port id="2" precision="I64" names="648">
					<dim>1</dim>
				</port>
			</output>
		</layer>
		<layer id="611" name="622344246766" type="Const" version="opset1">
			<data offset="120120" size="8" shape="" element_type="i64"/>
			<output>
				<port id="0" precision="I64" names="622"/>
			</output>
		</layer>
		<layer id="612" name="6183443" type="Const" version="opset1">
			<data offset="118980" size="4" shape="" element_type="i32"/>
			<output>
				<port id="0" precision="I32" names="618"/>
			</output>
		</layer>
		<layer id="613" name="Constant_15443444" type="Const" version="opset1">
			<data offset="118964" size="8" shape="" element_type="i64"/>
			<output>
				<port id="0" precision="I64"/>
			</output>
		</layer>
		<layer id="614" name="Gather_72" type="Gather" version="opset8">
			<data batch_dims="0"/>
			<input>
				<port id="0">
					<dim>4</dim>
				</port>
				<port id="1"/>
				<port id="2"/>
			</input>
			<output>
				<port id="3" precision="I64" names="619"/>
			</output>
		</layer>
		<layer id="615" name="Sub_76" type="Subtract" version="opset1">
			<data auto_broadcast="numpy"/>
			<input>
				<port id="0"/>
				<port id="1"/>
			</input>
			<output>
				<port id="2" precision="I64" names="623"/>
			</output>
		</layer>
		<layer id="616" name="633344747618" type="Const" version="opset1">
			<data offset="118972" size="8" shape="" element_type="i64"/>
			<output>
				<port id="0" precision="I64" names="633"/>
			</output>
		</layer>
		<layer id="617" name="Div_87" type="Divide" version="opset1">
			<data auto_broadcast="numpy"/>
			<input>
				<port id="0"/>
				<port id="1"/>
			</input>
			<output>
				<port id="2" precision="I64" names="634,635,636"/>
			</output>
		</layer>
		<layer id="618" name="Constant_1575344950567" type="Const" version="opset1">
			<data offset="118964" size="8" shape="1" element_type="i64"/>
			<output>
				<port id="0" precision="I64">
					<dim>1</dim>
				</port>
			</output>
		</layer>
		<layer id="619" name="Unsqueeze_102" type="Unsqueeze" version="opset1">
			<input>
				<port id="0"/>
				<port id="1">
					<dim>1</dim>
				</port>
			</input>
			<output>
				<port id="2" precision="I64" names="649">
					<dim>1</dim>
				</port>
			</output>
		</layer>
		<layer id="620" name="637345151935" type="Const" version="opset1">
			<data offset="118972" size="8" shape="" element_type="i64"/>
			<output>
				<port id="0" precision="I64" names="637"/>
			</output>
		</layer>
		<layer id="621" name="Div_91" type="Divide" version="opset1">
			<data auto_broadcast="numpy"/>
			<input>
				<port id="0"/>
				<port id="1"/>
			</input>
			<output>
				<port id="2" precision="I64" names="638,639,640"/>
			</output>
		</layer>
		<layer id="622" name="Sub_94" type="Subtract" version="opset1">
			<data auto_broadcast="numpy"/>
			<input>
				<port id="0"/>
				<port id="1"/>
			</input>
			<output>
				<port id="2" precision="I64" names="641"/>
			</output>
		</layer>
		<layer id="623" name="Constant_1577345447138" type="Const" version="opset1">
			<data offset="118964" size="8" shape="1" element_type="i64"/>
			<output>
				<port id="0" precision="I64">
					<dim>1</dim>
				</port>
			</output>
		</layer>
		<layer id="624" name="Unsqueeze_103" type="Unsqueeze" version="opset1">
			<input>
				<port id="0"/>
				<port id="1">
					<dim>1</dim>
				</port>
			</input>
			<output>
				<port id="2" precision="I64" names="650">
					<dim>1</dim>
				</port>
			</output>
		</layer>
		<layer id="625" name="Concat_104" type="Concat" version="opset1">
			<data axis="0"/>
			<input>
				<port id="0">
					<dim>1</dim>
				</port>
				<port id="1">
					<dim>1</dim>
				</port>
				<port id="2">
					<dim>1</dim>
				</port>
				<port id="3">
					<dim>1</dim>
				</port>
			</input>
			<output>
				<port id="4" precision="I64" names="651,659">
					<dim>4</dim>
				</port>
			</output>
		</layer>
		<layer id="626" name="ConstantOfShape_110345750249" type="Const" version="opset1">
			<data offset="118984" size="32" shape="4" element_type="i64"/>
			<output>
				<port id="0" precision="I64" names="660">
					<dim>4</dim>
				</port>
			</output>
		</layer>
		<layer id="627" name="Concat_111" type="Concat" version="opset1">
			<data axis="0"/>
			<input>
				<port id="0">
					<dim>4</dim>
				</port>
				<port id="1">
					<dim>4</dim>
				</port>
			</input>
			<output>
				<port id="2" precision="I64" names="661">
					<dim>8</dim>
				</port>
			</output>
		</layer>
		<layer id="628" name="662345951359" type="Const" version="opset1">
			<data offset="119016" size="16" shape="2" element_type="i64"/>
			<output>
				<port id="0" precision="I64" names="662">
					<dim>2</dim>
				</port>
			</output>
		</layer>
		<layer id="629" name="Reshape_113" type="Reshape" version="opset1">
			<data special_zero="true"/>
			<input>
				<port id="0">
					<dim>8</dim>
				</port>
				<port id="1">
					<dim>2</dim>
				</port>
			</input>
			<output>
				<port id="2" precision="I64" names="663">
					<dim>4</dim>
					<dim>2</dim>
				</port>
			</output>
		</layer>
		<layer id="630" name="6653461" type="Const" version="opset1">
			<data offset="119032" size="8" shape="1" element_type="i64"/>
			<output>
				<port id="0" precision="I64" names="665">
					<dim>1</dim>
				</port>
			</output>
		</layer>
		<layer id="631" name="6663462" type="Const" version="opset1">
			<data offset="119040" size="8" shape="1" element_type="i64"/>
			<output>
				<port id="0" precision="I64" names="666">
					<dim>1</dim>
				</port>
			</output>
		</layer>
		<layer id="632" name="6673463" type="Const" version="opset1">
			<data offset="119032" size="8" shape="1" element_type="i64"/>
			<output>
				<port id="0" precision="I64" names="667">
					<dim>1</dim>
				</port>
			</output>
		</layer>
		<layer id="633" name="Slice_118" type="StridedSlice" version="opset1">
			<data begin_mask="0" end_mask="0" new_axis_mask="0" shrink_axis_mask="0" ellipsis_mask="0"/>
			<input>
				<port id="0">
					<dim>4</dim>
					<dim>2</dim>
				</port>
				<port id="1">
					<dim>1</dim>
				</port>
				<port id="2">
					<dim>1</dim>
				</port>
				<port id="3">
					<dim>1</dim>
				</port>
			</input>
			<output>
				<port id="4" precision="I64" names="668">
					<dim>4</dim>
					<dim>2</dim>
				</port>
			</output>
		</layer>
		<layer id="634" name="Constant_16163465" type="Const" version="opset1">
			<data offset="119048" size="16" shape="2" element_type="i64"/>
			<output>
				<port id="0" precision="I64">
					<dim>2</dim>
				</port>
			</output>
		</layer>
		<layer id="635" name="Transpose_119" type="Transpose" version="opset1">
			<input>
				<port id="0">
					<dim>4</dim>
					<dim>2</dim>
				</port>
				<port id="1">
					<dim>2</dim>
				</port>
			</input>
			<output>
				<port id="2" precision="I64" names="669">
					<dim>2</dim>
					<dim>4</dim>
				</port>
			</output>
		</layer>
		<layer id="636" name="670346746142" type="Const" version="opset1">
			<data offset="119032" size="8" shape="1" element_type="i64"/>
			<output>
				<port id="0" precision="I64" names="670">
					<dim>1</dim>
				</port>
			</output>
		</layer>
		<layer id="637" name="Reshape_121" type="Reshape" version="opset1">
			<data special_zero="true"/>
			<input>
				<port id="0">
					<dim>2</dim>
					<dim>4</dim>
				</port>
				<port id="1">
					<dim>1</dim>
				</port>
			</input>
			<output>
				<port id="2" precision="I64" names="671,672">
…
		<edge from-layer="3931" from-port="1" to-layer="3938" to-port="3"/>
		<edge from-layer="3933" from-port="1" to-layer="3938" to-port="4"/>
		<edge from-layer="3938" from-port="5" to-layer="3943" to-port="0"/>
		<edge from-layer="3941" from-port="0" to-layer="3943" to-port="1"/>
		<edge from-layer="3942" from-port="0" to-layer="3943" to-port="2"/>
		<edge from-layer="3943" from-port="3" to-layer="3945" to-port="0"/>
		<edge from-layer="3944" from-port="0" to-layer="3945" to-port="1"/>
		<edge from-layer="3945" from-port="2" to-layer="3946" to-port="0"/>
		<edge from-layer="3946" from-port="1" to-layer="3947" to-port="0"/>
		<edge from-layer="3896" from-port="2" to-layer="3949" to-port="0"/>
		<edge from-layer="3947" from-port="1" to-layer="3949" to-port="1"/>
		<edge from-layer="3948" from-port="0" to-layer="3949" to-port="2"/>
		<edge from-layer="3945" from-port="2" to-layer="3950" to-port="0"/>
		<edge from-layer="3950" from-port="1" to-layer="3951" to-port="0"/>
		<edge from-layer="3922" from-port="2" to-layer="3953" to-port="0"/>
		<edge from-layer="3951" from-port="1" to-layer="3953" to-port="1"/>
		<edge from-layer="3952" from-port="0" to-layer="3953" to-port="2"/>
		<edge from-layer="3945" from-port="2" to-layer="3954" to-port="0"/>
		<edge from-layer="3954" from-port="1" to-layer="3955" to-port="0"/>
		<edge from-layer="3925" from-port="5" to-layer="3957" to-port="0"/>
		<edge from-layer="3955" from-port="1" to-layer="3957" to-port="1"/>
		<edge from-layer="3956" from-port="0" to-layer="3957" to-port="2"/>
		<edge from-layer="3957" from-port="3" to-layer="3959" to-port="0"/>
		<edge from-layer="3958" from-port="0" to-layer="3959" to-port="1"/>
		<edge from-layer="3953" from-port="3" to-layer="3960" to-port="0"/>
		<edge from-layer="3959" from-port="2" to-layer="3960" to-port="1"/>
		<edge from-layer="3960" from-port="2" to-layer="3963" to-port="0"/>
		<edge from-layer="3961" from-port="0" to-layer="3963" to-port="1"/>
		<edge from-layer="3962" from-port="0" to-layer="3963" to-port="2"/>
		<edge from-layer="3963" from-port="3" to-layer="3965" to-port="0"/>
		<edge from-layer="3964" from-port="0" to-layer="3965" to-port="1"/>
		<edge from-layer="3949" from-port="3" to-layer="3966" to-port="0"/>
		<edge from-layer="3965" from-port="2" to-layer="3966" to-port="1"/>
		<edge from-layer="3966" from-port="2" to-layer="3970" to-port="0"/>
		<edge from-layer="3967" from-port="0" to-layer="3970" to-port="1"/>
		<edge from-layer="3968" from-port="0" to-layer="3970" to-port="2"/>
		<edge from-layer="3969" from-port="0" to-layer="3970" to-port="3"/>
		<edge from-layer="3970" from-port="4" to-layer="3974" to-port="0"/>
		<edge from-layer="3971" from-port="0" to-layer="3974" to-port="1"/>
		<edge from-layer="3972" from-port="0" to-layer="3974" to-port="2"/>
		<edge from-layer="3973" from-port="0" to-layer="3974" to-port="3"/>
		<edge from-layer="3974" from-port="4" to-layer="3976" to-port="0"/>
		<edge from-layer="3975" from-port="0" to-layer="3976" to-port="1"/>
		<edge from-layer="3977" from-port="0" to-layer="3978" to-port="0"/>
		<edge from-layer="3976" from-port="2" to-layer="3981" to-port="0"/>
		<edge from-layer="3979" from-port="0" to-layer="3981" to-port="1"/>
		<edge from-layer="3980" from-port="0" to-layer="3981" to-port="2"/>
		<edge from-layer="3978" from-port="1" to-layer="3981" to-port="3"/>
		<edge from-layer="3981" from-port="4" to-layer="3985" to-port="0"/>
		<edge from-layer="3982" from-port="0" to-layer="3985" to-port="1"/>
		<edge from-layer="3983" from-port="0" to-layer="3985" to-port="2"/>
		<edge from-layer="3984" from-port="0" to-layer="3985" to-port="3"/>
		<edge from-layer="3985" from-port="4" to-layer="3986" to-port="0"/>
		<edge from-layer="3108" from-port="2" to-layer="3986" to-port="1"/>
		<edge from-layer="3218" from-port="2" to-layer="3986" to-port="2"/>
		<edge from-layer="3320" from-port="2" to-layer="3986" to-port="3"/>
		<edge from-layer="2968" from-port="2" to-layer="3986" to-port="4"/>
		<edge from-layer="3981" from-port="4" to-layer="3991" to-port="0"/>
		<edge from-layer="3988" from-port="0" to-layer="3991" to-port="1"/>
		<edge from-layer="3989" from-port="0" to-layer="3991" to-port="2"/>
		<edge from-layer="3990" from-port="0" to-layer="3991" to-port="3"/>
		<edge from-layer="3991" from-port="4" to-layer="3994" to-port="0"/>
		<edge from-layer="3992" from-port="0" to-layer="3994" to-port="1"/>
		<edge from-layer="3993" from-port="0" to-layer="3994" to-port="2"/>
		<edge from-layer="3991" from-port="4" to-layer="3997" to-port="0"/>
		<edge from-layer="3995" from-port="0" to-layer="3997" to-port="1"/>
		<edge from-layer="3996" from-port="0" to-layer="3997" to-port="2"/>
		<edge from-layer="3994" from-port="3" to-layer="3998" to-port="0"/>
		<edge from-layer="3997" from-port="3" to-layer="3998" to-port="1"/>
		<edge from-layer="3999" from-port="0" to-layer="4000" to-port="0"/>
		<edge from-layer="3998" from-port="2" to-layer="4001" to-port="0"/>
		<edge from-layer="4000" from-port="1" to-layer="4001" to-port="1"/>
		<edge from-layer="4001" from-port="2" to-layer="4003" to-port="0"/>
		<edge from-layer="4002" from-port="0" to-layer="4003" to-port="1"/>
		<edge from-layer="3986" from-port="5" to-layer="4017" to-port="0"/>
		<edge from-layer="4013" from-port="0" to-layer="4017" to-port="1"/>
		<edge from-layer="4014" from-port="0" to-layer="4017" to-port="2"/>
		<edge from-layer="4015" from-port="0" to-layer="4017" to-port="3"/>
		<edge from-layer="4016" from-port="0" to-layer="4017" to-port="4"/>
		<edge from-layer="4017" from-port="5" to-layer="4018" to-port="0"/>
		<edge from-layer="4012" from-port="0" to-layer="4018" to-port="1"/>
		<edge from-layer="4020" from-port="0" to-layer="4021" to-port="0"/>
		<edge from-layer="4021" from-port="1" to-layer="4022" to-port="0"/>
		<edge from-layer="4019" from-port="0" to-layer="4022" to-port="1"/>
		<edge from-layer="4018" from-port="2" to-layer="4023" to-port="0"/>
		<edge from-layer="4022" from-port="2" to-layer="4023" to-port="1"/>
		<edge from-layer="4024" from-port="0" to-layer="4025" to-port="0"/>
		<edge from-layer="4023" from-port="2" to-layer="4026" to-port="0"/>
		<edge from-layer="4025" from-port="1" to-layer="4026" to-port="1"/>
		<edge from-layer="4026" from-port="2" to-layer="4027" to-port="0"/>
		<edge from-layer="4027" from-port="1" to-layer="4028" to-port="0"/>
		<edge from-layer="4008" from-port="0" to-layer="4028" to-port="1"/>
		<edge from-layer="4009" from-port="0" to-layer="4028" to-port="2"/>
		<edge from-layer="4010" from-port="0" to-layer="4028" to-port="3"/>
		<edge from-layer="4011" from-port="0" to-layer="4028" to-port="4"/>
		<edge from-layer="4030" from-port="0" to-layer="4031" to-port="0"/>
		<edge from-layer="4031" from-port="1" to-layer="4032" to-port="0"/>
		<edge from-layer="4029" from-port="0" to-layer="4032" to-port="1"/>
		<edge from-layer="4028" from-port="5" to-layer="4033" to-port="0"/>
		<edge from-layer="4032" from-port="2" to-layer="4033" to-port="1"/>
		<edge from-layer="4034" from-port="0" to-layer="4035" to-port="0"/>
		<edge from-layer="4033" from-port="2" to-layer="4036" to-port="0"/>
		<edge from-layer="4035" from-port="1" to-layer="4036" to-port="1"/>
		<edge from-layer="4036" from-port="2" to-layer="4037" to-port="0"/>
		<edge from-layer="4037" from-port="1" to-layer="4038" to-port="0"/>
		<edge from-layer="4004" from-port="0" to-layer="4038" to-port="1"/>
		<edge from-layer="4005" from-port="0" to-layer="4038" to-port="2"/>
		<edge from-layer="4006" from-port="0" to-layer="4038" to-port="3"/>
		<edge from-layer="4007" from-port="0" to-layer="4038" to-port="4"/>
		<edge from-layer="4040" from-port="0" to-layer="4041" to-port="0"/>
		<edge from-layer="4041" from-port="1" to-layer="4042" to-port="0"/>
		<edge from-layer="4039" from-port="0" to-layer="4042" to-port="1"/>
		<edge from-layer="4038" from-port="5" to-layer="4043" to-port="0"/>
		<edge from-layer="4042" from-port="2" to-layer="4043" to-port="1"/>
		<edge from-layer="4044" from-port="0" to-layer="4045" to-port="0"/>
		<edge from-layer="4043" from-port="2" to-layer="4046" to-port="0"/>
		<edge from-layer="4045" from-port="1" to-layer="4046" to-port="1"/>
		<edge from-layer="4047" from-port="0" to-layer="4048" to-port="0"/>
		<edge from-layer="4046" from-port="2" to-layer="4050" to-port="0"/>
		<edge from-layer="4050" from-port="1" to-layer="4053" to-port="0"/>
		<edge from-layer="4051" from-port="0" to-layer="4053" to-port="1"/>
		<edge from-layer="4052" from-port="0" to-layer="4053" to-port="2"/>
		<edge from-layer="4053" from-port="3" to-layer="4055" to-port="0"/>
		<edge from-layer="4054" from-port="0" to-layer="4055" to-port="1"/>
		<edge from-layer="4055" from-port="2" to-layer="4057" to-port="0"/>
		<edge from-layer="4056" from-port="0" to-layer="4057" to-port="1"/>
		<edge from-layer="4049" from-port="0" to-layer="4058" to-port="0"/>
		<edge from-layer="4057" from-port="2" to-layer="4058" to-port="1"/>
		<edge from-layer="4048" from-port="1" to-layer="4059" to-port="0"/>
		<edge from-layer="4058" from-port="2" to-layer="4059" to-port="1"/>
		<edge from-layer="4046" from-port="2" to-layer="4060" to-port="0"/>
		<edge from-layer="4059" from-port="2" to-layer="4060" to-port="1"/>
		<edge from-layer="4061" from-port="0" to-layer="4062" to-port="0"/>
		<edge from-layer="4050" from-port="1" to-layer="4066" to-port="0"/>
		<edge from-layer="4064" from-port="0" to-layer="4066" to-port="1"/>
		<edge from-layer="4065" from-port="0" to-layer="4066" to-port="2"/>
		<edge from-layer="4066" from-port="3" to-layer="4068" to-port="0"/>
		<edge from-layer="4067" from-port="0" to-layer="4068" to-port="1"/>
		<edge from-layer="4068" from-port="2" to-layer="4070" to-port="0"/>
		<edge from-layer="4069" from-port="0" to-layer="4070" to-port="1"/>
		<edge from-layer="4063" from-port="0" to-layer="4071" to-port="0"/>
		<edge from-layer="4070" from-port="2" to-layer="4071" to-port="1"/>
		<edge from-layer="4062" from-port="1" to-layer="4072" to-port="0"/>
		<edge from-layer="4071" from-port="2" to-layer="4072" to-port="1"/>
		<edge from-layer="4060" from-port="2" to-layer="4073" to-port="0"/>
		<edge from-layer="4072" from-port="2" to-layer="4073" to-port="1"/>
		<edge from-layer="4073" from-port="2" to-layer="4077" to-port="0"/>
		<edge from-layer="4074" from-port="0" to-layer="4077" to-port="1"/>
		<edge from-layer="4075" from-port="0" to-layer="4077" to-port="2"/>
		<edge from-layer="4076" from-port="0" to-layer="4077" to-port="3"/>
		<edge from-layer="4077" from-port="4" to-layer="4078" to-port="0"/>
		<edge from-layer="4003" from-port="2" to-layer="4079" to-port="0"/>
		<edge from-layer="4078" from-port="1" to-layer="4079" to-port="1"/>
		<edge from-layer="3991" from-port="4" to-layer="4082" to-port="0"/>
		<edge from-layer="4080" from-port="0" to-layer="4082" to-port="1"/>
		<edge from-layer="4081" from-port="0" to-layer="4082" to-port="2"/>
		<edge from-layer="3991" from-port="4" to-layer="4085" to-port="0"/>
		<edge from-layer="4083" from-port="0" to-layer="4085" to-port="1"/>
		<edge from-layer="4084" from-port="0" to-layer="4085" to-port="2"/>
		<edge from-layer="4082" from-port="3" to-layer="4086" to-port="0"/>
		<edge from-layer="4085" from-port="3" to-layer="4086" to-port="1"/>
		<edge from-layer="4086" from-port="2" to-layer="4088" to-port="0"/>
		<edge from-layer="4087" from-port="0" to-layer="4088" to-port="1"/>
		<edge from-layer="4073" from-port="2" to-layer="4092" to-port="0"/>
		<edge from-layer="4089" from-port="0" to-layer="4092" to-port="1"/>
		<edge from-layer="4090" from-port="0" to-layer="4092" to-port="2"/>
		<edge from-layer="4091" from-port="0" to-layer="4092" to-port="3"/>
		<edge from-layer="4092" from-port="4" to-layer="4093" to-port="0"/>
		<edge from-layer="4093" from-port="1" to-layer="4094" to-port="0"/>
		<edge from-layer="4088" from-port="2" to-layer="4095" to-port="0"/>
		<edge from-layer="4094" from-port="1" to-layer="4095" to-port="1"/>
		<edge from-layer="4095" from-port="2" to-layer="4096" to-port="0"/>
		<edge from-layer="4077" from-port="4" to-layer="4096" to-port="1"/>
		<edge from-layer="4079" from-port="2" to-layer="4097" to-port="0"/>
		<edge from-layer="4096" from-port="2" to-layer="4097" to-port="1"/>
		<edge from-layer="4093" from-port="1" to-layer="4098" to-port="0"/>
		<edge from-layer="4095" from-port="2" to-layer="4099" to-port="0"/>
		<edge from-layer="4098" from-port="1" to-layer="4099" to-port="1"/>
		<edge from-layer="4100" from-port="0" to-layer="4101" to-port="0"/>
		<edge from-layer="4099" from-port="2" to-layer="4102" to-port="0"/>
		<edge from-layer="4101" from-port="1" to-layer="4102" to-port="1"/>
		<edge from-layer="4097" from-port="2" to-layer="4103" to-port="0"/>
		<edge from-layer="4102" from-port="2" to-layer="4103" to-port="1"/>
		<edge from-layer="4103" from-port="2" to-layer="4105" to-port="0"/>
		<edge from-layer="4104" from-port="0" to-layer="4105" to-port="1"/>
		<edge from-layer="4106" from-port="0" to-layer="4107" to-port="0"/>
		<edge from-layer="4103" from-port="2" to-layer="4108" to-port="0"/>
		<edge from-layer="4107" from-port="1" to-layer="4109" to-port="0"/>
		<edge from-layer="4108" from-port="1" to-layer="4109" to-port="1"/>
		<edge from-layer="4109" from-port="2" to-layer="4111" to-port="0"/>
		<edge from-layer="4110" from-port="0" to-layer="4111" to-port="1"/>
		<edge from-layer="4105" from-port="2" to-layer="4112" to-port="0"/>
		<edge from-layer="4111" from-port="2" to-layer="4112" to-port="1"/>
		<edge from-layer="4112" from-port="2" to-layer="4114" to-port="0"/>
		<edge from-layer="4113" from-port="0" to-layer="4114" to-port="1"/>
		<edge from-layer="4114" from-port="2" to-layer="4116" to-port="0"/>
		<edge from-layer="4115" from-port="0" to-layer="4116" to-port="1"/>
		<edge from-layer="3745" from-port="4" to-layer="4119" to-port="0"/>
		<edge from-layer="4117" from-port="0" to-layer="4119" to-port="1"/>
		<edge from-layer="4118" from-port="0" to-layer="4119" to-port="2"/>
		<edge from-layer="4119" from-port="3" to-layer="4120" to-port="0"/>
		<edge from-layer="4120" from-port="1" to-layer="4122" to-port="0"/>
		<edge from-layer="4121" from-port="0" to-layer="4122" to-port="1"/>
		<edge from-layer="4114" from-port="2" to-layer="4123" to-port="0"/>
		<edge from-layer="4122" from-port="2" to-layer="4124" to-port="0"/>
		<edge from-layer="4123" from-port="1" to-layer="4124" to-port="1"/>
		<edge from-layer="4124" from-port="2" to-layer="4126" to-port="0"/>
		<edge from-layer="4125" from-port="0" to-layer="4126" to-port="1"/>
		<edge from-layer="4116" from-port="2" to-layer="4127" to-port="0"/>
		<edge from-layer="4126" from-port="2" to-layer="4127" to-port="1"/>
		<edge from-layer="4127" from-port="2" to-layer="4129" to-port="0"/>
		<edge from-layer="4128" from-port="0" to-layer="4129" to-port="1"/>
		<edge from-layer="4129" from-port="2" to-layer="4131" to-port="0"/>
		<edge from-layer="4130" from-port="0" to-layer="4131" to-port="1"/>
		<edge from-layer="3991" from-port="4" to-layer="4134" to-port="0"/>
		<edge from-layer="4132" from-port="0" to-layer="4134" to-port="1"/>
		<edge from-layer="4133" from-port="0" to-layer="4134" to-port="2"/>
		<edge from-layer="3991" from-port="4" to-layer="4137" to-port="0"/>
		<edge from-layer="4135" from-port="0" to-layer="4137" to-port="1"/>
		<edge from-layer="4136" from-port="0" to-layer="4137" to-port="2"/>
		<edge from-layer="4134" from-port="3" to-layer="4138" to-port="0"/>
		<edge from-layer="4137" from-port="3" to-layer="4138" to-port="1"/>
		<edge from-layer="4139" from-port="0" to-layer="4140" to-port="0"/>
		<edge from-layer="4138" from-port="2" to-layer="4141" to-port="0"/>
		<edge from-layer="4140" from-port="1" to-layer="4141" to-port="1"/>
		<edge from-layer="4141" from-port="2" to-layer="4143" to-port="0"/>
		<edge from-layer="4142" from-port="0" to-layer="4143" to-port="1"/>
		<edge from-layer="4073" from-port="2" to-layer="4147" to-port="0"/>
		<edge from-layer="4144" from-port="0" to-layer="4147" to-port="1"/>
		<edge from-layer="4145" from-port="0" to-layer="4147" to-port="2"/>
		<edge from-layer="4146" from-port="0" to-layer="4147" to-port="3"/>
		<edge from-layer="4147" from-port="4" to-layer="4148" to-port="0"/>
		<edge from-layer="4143" from-port="2" to-layer="4149" to-port="0"/>
		<edge from-layer="4148" from-port="1" to-layer="4149" to-port="1"/>
		<edge from-layer="3991" from-port="4" to-layer="4152" to-port="0"/>
		<edge from-layer="4150" from-port="0" to-layer="4152" to-port="1"/>
		<edge from-layer="4151" from-port="0" to-layer="4152" to-port="2"/>
		<edge from-layer="3991" from-port="4" to-layer="4155" to-port="0"/>
		<edge from-layer="4153" from-port="0" to-layer="4155" to-port="1"/>
		<edge from-layer="4154" from-port="0" to-layer="4155" to-port="2"/>
		<edge from-layer="4152" from-port="3" to-layer="4156" to-port="0"/>
		<edge from-layer="4155" from-port="3" to-layer="4156" to-port="1"/>
		<edge from-layer="4156" from-port="2" to-layer="4158" to-port="0"/>
		<edge from-layer="4157" from-port="0" to-layer="4158" to-port="1"/>
		<edge from-layer="4073" from-port="2" to-layer="4162" to-port="0"/>
		<edge from-layer="4159" from-port="0" to-layer="4162" to-port="1"/>
		<edge from-layer="4160" from-port="0" to-layer="4162" to-port="2"/>
		<edge from-layer="4161" from-port="0" to-layer="4162" to-port="3"/>
		<edge from-layer="4162" from-port="4" to-layer="4163" to-port="0"/>
		<edge from-layer="4163" from-port="1" to-layer="4164" to-port="0"/>
		<edge from-layer="4158" from-port="2" to-layer="4165" to-port="0"/>
		<edge from-layer="4164" from-port="1" to-layer="4165" to-port="1"/>
		<edge from-layer="4165" from-port="2" to-layer="4166" to-port="0"/>
		<edge from-layer="4147" from-port="4" to-layer="4166" to-port="1"/>
		<edge from-layer="4149" from-port="2" to-layer="4167" to-port="0"/>
		<edge from-layer="4166" from-port="2" to-layer="4167" to-port="1"/>
		<edge from-layer="4163" from-port="1" to-layer="4168" to-port="0"/>
		<edge from-layer="4165" from-port="2" to-layer="4169" to-port="0"/>
		<edge from-layer="4168" from-port="1" to-layer="4169" to-port="1"/>
		<edge from-layer="4170" from-port="0" to-layer="4171" to-port="0"/>
		<edge from-layer="4169" from-port="2" to-layer="4172" to-port="0"/>
		<edge from-layer="4171" from-port="1" to-layer="4172" to-port="1"/>
		<edge from-layer="4167" from-port="2" to-layer="4173" to-port="0"/>
		<edge from-layer="4172" from-port="2" to-layer="4173" to-port="1"/>
		<edge from-layer="4173" from-port="2" to-layer="4175" to-port="0"/>
		<edge from-layer="4174" from-port="0" to-layer="4175" to-port="1"/>
		<edge from-layer="4176" from-port="0" to-layer="4177" to-port="0"/>
		<edge from-layer="4173" from-port="2" to-layer="4178" to-port="0"/>
		<edge from-layer="4177" from-port="1" to-layer="4179" to-port="0"/>
		<edge from-layer="4178" from-port="1" to-layer="4179" to-port="1"/>
		<edge from-layer="4179" from-port="2" to-layer="4181" to-port="0"/>
		<edge from-layer="4180" from-port="0" to-layer="4181" to-port="1"/>
		<edge from-layer="4175" from-port="2" to-layer="4182" to-port="0"/>
		<edge from-layer="4181" from-port="2" to-layer="4182" to-port="1"/>
		<edge from-layer="4182" from-port="2" to-layer="4184" to-port="0"/>
		<edge from-layer="4183" from-port="0" to-layer="4184" to-port="1"/>
		<edge from-layer="4184" from-port="2" to-layer="4186" to-port="0"/>
		<edge from-layer="4185" from-port="0" to-layer="4186" to-port="1"/>
		<edge from-layer="3745" from-port="4" to-layer="4189" to-port="0"/>
		<edge from-layer="4187" from-port="0" to-layer="4189" to-port="1"/>
		<edge from-layer="4188" from-port="0" to-layer="4189" to-port="2"/>
		<edge from-layer="4189" from-port="3" to-layer="4190" to-port="0"/>
		<edge from-layer="4190" from-port="1" to-layer="4192" to-port="0"/>
		<edge from-layer="4191" from-port="0" to-layer="4192" to-port="1"/>
		<edge from-layer="4184" from-port="2" to-layer="4193" to-port="0"/>
		<edge from-layer="4192" from-port="2" to-layer="4194" to-port="0"/>
		<edge from-layer="4193" from-port="1" to-layer="4194" to-port="1"/>
		<edge from-layer="4194" from-port="2" to-layer="4196" to-port="0"/>
		<edge from-layer="4195" from-port="0" to-layer="4196" to-port="1"/>
		<edge from-layer="4186" from-port="2" to-layer="4197" to-port="0"/>
		<edge from-layer="4196" from-port="2" to-layer="4197" to-port="1"/>
		<edge from-layer="4197" from-port="2" to-layer="4199" to-port="0"/>
		<edge from-layer="4198" from-port="0" to-layer="4199" to-port="1"/>
		<edge from-layer="4199" from-port="2" to-layer="4201" to-port="0"/>
		<edge from-layer="4200" from-port="0" to-layer="4201" to-port="1"/>
		<edge from-layer="4202" from-port="0" to-layer="4203" to-port="0"/>
		<edge from-layer="4099" from-port="2" to-layer="4204" to-port="0"/>
		<edge from-layer="4203" from-port="1" to-layer="4204" to-port="1"/>
		<edge from-layer="4097" from-port="2" to-layer="4205" to-port="0"/>
		<edge from-layer="4204" from-port="2" to-layer="4205" to-port="1"/>
		<edge from-layer="4205" from-port="2" to-layer="4207" to-port="0"/>
		<edge from-layer="4206" from-port="0" to-layer="4207" to-port="1"/>
		<edge from-layer="4208" from-port="0" to-layer="4209" to-port="0"/>
		<edge from-layer="4205" from-port="2" to-layer="4210" to-port="0"/>
		<edge from-layer="4209" from-port="1" to-layer="4211" to-port="0"/>
		<edge from-layer="4210" from-port="1" to-layer="4211" to-port="1"/>
		<edge from-layer="4211" from-port="2" to-layer="4213" to-port="0"/>
		<edge from-layer="4212" from-port="0" to-layer="4213" to-port="1"/>
		<edge from-layer="4207" from-port="2" to-layer="4214" to-port="0"/>
		<edge from-layer="4213" from-port="2" to-layer="4214" to-port="1"/>
		<edge from-layer="4214" from-port="2" to-layer="4216" to-port="0"/>
		<edge from-layer="4215" from-port="0" to-layer="4216" to-port="1"/>
		<edge from-layer="4216" from-port="2" to-layer="4218" to-port="0"/>
		<edge from-layer="4217" from-port="0" to-layer="4218" to-port="1"/>
		<edge from-layer="3745" from-port="4" to-layer="4221" to-port="0"/>
		<edge from-layer="4219" from-port="0" to-layer="4221" to-port="1"/>
		<edge from-layer="4220" from-port="0" to-layer="4221" to-port="2"/>
		<edge from-layer="4221" from-port="3" to-layer="4222" to-port="0"/>
		<edge from-layer="4222" from-port="1" to-layer="4224" to-port="0"/>
		<edge from-layer="4223" from-port="0" to-layer="4224" to-port="1"/>
		<edge from-layer="4216" from-port="2" to-layer="4225" to-port="0"/>
		<edge from-layer="4224" from-port="2" to-layer="4226" to-port="0"/>
		<edge from-layer="4225" from-port="1" to-layer="4226" to-port="1"/>
		<edge from-layer="4226" from-port="2" to-layer="4228" to-port="0"/>
		<edge from-layer="4227" from-port="0" to-layer="4228" to-port="1"/>
		<edge from-layer="4218" from-port="2" to-layer="4229" to-port="0"/>
		<edge from-layer="4228" from-port="2" to-layer="4229" to-port="1"/>
		<edge from-layer="4229" from-port="2" to-layer="4231" to-port="0"/>
		<edge from-layer="4230" from-port="0" to-layer="4231" to-port="1"/>
		<edge from-layer="4231" from-port="2" to-layer="4233" to-port="0"/>
		<edge from-layer="4232" from-port="0" to-layer="4233" to-port="1"/>
		<edge from-layer="4234" from-port="0" to-layer="4235" to-port="0"/>
		<edge from-layer="4169" from-port="2" to-layer="4236" to-port="0"/>
		<edge from-layer="4235" from-port="1" to-layer="4236" to-port="1"/>
		<edge from-layer="4167" from-port="2" to-layer="4237" to-port="0"/>
		<edge from-layer="4236" from-port="2" to-layer="4237" to-port="1"/>
		<edge from-layer="4237" from-port="2" to-layer="4239" to-port="0"/>
		<edge from-layer="4238" from-port="0" to-layer="4239" to-port="1"/>
		<edge from-layer="4240" from-port="0" to-layer="4241" to-port="0"/>
		<edge from-layer="4237" from-port="2" to-layer="4242" to-port="0"/>
		<edge from-layer="4241" from-port="1" to-layer="4243" to-port="0"/>
		<edge from-layer="4242" from-port="1" to-layer="4243" to-port="1"/>
		<edge from-layer="4243" from-port="2" to-layer="4245" to-port="0"/>
		<edge from-layer="4244" from-port="0" to-layer="4245" to-port="1"/>
		<edge from-layer="4239" from-port="2" to-layer="4246" to-port="0"/>
		<edge from-layer="4245" from-port="2" to-layer="4246" to-port="1"/>
		<edge from-layer="4246" from-port="2" to-layer="4248" to-port="0"/>
		<edge from-layer="4247" from-port="0" to-layer="4248" to-port="1"/>
		<edge from-layer="4248" from-port="2" to-layer="4250" to-port="0"/>
		<edge from-layer="4249" from-port="0" to-layer="4250" to-port="1"/>
		<edge from-layer="3745" from-port="4" to-layer="4253" to-port="0"/>
		<edge from-layer="4251" from-port="0" to-layer="4253" to-port="1"/>
		<edge from-layer="4252" from-port="0" to-layer="4253" to-port="2"/>
		<edge from-layer="4253" from-port="3" to-layer="4254" to-port="0"/>
		<edge from-layer="4254" from-port="1" to-layer="4256" to-port="0"/>
		<edge from-layer="4255" from-port="0" to-layer="4256" to-port="1"/>
		<edge from-layer="4248" from-port="2" to-layer="4257" to-port="0"/>
		<edge from-layer="4256" from-port="2" to-layer="4258" to-port="0"/>
		<edge from-layer="4257" from-port="1" to-layer="4258" to-port="1"/>
		<edge from-layer="4258" from-port="2" to-layer="4260" to-port="0"/>
		<edge from-layer="4259" from-port="0" to-layer="4260" to-port="1"/>
		<edge from-layer="4250" from-port="2" to-layer="4261" to-port="0"/>
		<edge from-layer="4260" from-port="2" to-layer="4261" to-port="1"/>
		<edge from-layer="4261" from-port="2" to-layer="4263" to-port="0"/>
		<edge from-layer="4262" from-port="0" to-layer="4263" to-port="1"/>
		<edge from-layer="4263" from-port="2" to-layer="4265" to-port="0"/>
		<edge from-layer="4264" from-port="0" to-layer="4265" to-port="1"/>
		<edge from-layer="4131" from-port="2" to-layer="4266" to-port="0"/>
		<edge from-layer="4201" from-port="2" to-layer="4266" to-port="1"/>
		<edge from-layer="4233" from-port="2" to-layer="4266" to-port="2"/>
		<edge from-layer="4265" from-port="2" to-layer="4266" to-port="3"/>
		<edge from-layer="4266" from-port="4" to-layer="4267" to-port="0"/>
		<edge from-layer="4050" from-port="1" to-layer="4267" to-port="1"/>
		<edge from-layer="4267" from-port="2" to-layer="4271" to-port="0"/>
		<edge from-layer="4268" from-port="0" to-layer="4271" to-port="1"/>
		<edge from-layer="4269" from-port="0" to-layer="4271" to-port="2"/>
		<edge from-layer="4270" from-port="0" to-layer="4271" to-port="3"/>
		<edge from-layer="4273" from-port="0" to-layer="4274" to-port="0"/>
		<edge from-layer="4274" from-port="1" to-layer="4275" to-port="0"/>
		<edge from-layer="4272" from-port="0" to-layer="4275" to-port="1"/>
		<edge from-layer="4038" from-port="5" to-layer="4276" to-port="0"/>
		<edge from-layer="4275" from-port="2" to-layer="4276" to-port="1"/>
		<edge from-layer="4277" from-port="0" to-layer="4278" to-port="0"/>
		<edge from-layer="4276" from-port="2" to-layer="4279" to-port="0"/>
		<edge from-layer="4278" from-port="1" to-layer="4279" to-port="1"/>
		<edge from-layer="4279" from-port="2" to-layer="4280" to-port="0"/>
		<edge from-layer="4280" from-port="1" to-layer="4284" to-port="0"/>
		<edge from-layer="4281" from-port="0" to-layer="4284" to-port="1"/>
		<edge from-layer="4282" from-port="0" to-layer="4284" to-port="2"/>
		<edge from-layer="4283" from-port="0" to-layer="4284" to-port="3"/>
		<edge from-layer="4284" from-port="4" to-layer="4285" to-port="0"/>
		<edge from-layer="4285" from-port="1" to-layer="4288" to-port="0"/>
		<edge from-layer="4286" from-port="0" to-layer="4288" to-port="1"/>
		<edge from-layer="4287" from-port="0" to-layer="4288" to-port="2"/>
		<edge from-layer="4288" from-port="3" to-layer="4291" to-port="0"/>
		<edge from-layer="4289" from-port="0" to-layer="4291" to-port="1"/>
		<edge from-layer="4290" from-port="0" to-layer="4291" to-port="2"/>
		<edge from-layer="4271" from-port="4" to-layer="4292" to-port="0"/>
		<edge from-layer="4291" from-port="3" to-layer="4292" to-port="1"/>
		<edge from-layer="4292" from-port="2" to-layer="4294" to-port="0"/>
		<edge from-layer="4293" from-port="0" to-layer="4294" to-port="1"/>
		<edge from-layer="4285" from-port="1" to-layer="4298" to-port="0"/>
		<edge from-layer="4296" from-port="0" to-layer="4298" to-port="1"/>
		<edge from-layer="4297" from-port="0" to-layer="4298" to-port="2"/>
		<edge from-layer="4295" from-port="0" to-layer="4300" to-port="0"/>
		<edge from-layer="4298" from-port="3" to-layer="4300" to-port="1"/>
		<edge from-layer="4299" from-port="0" to-layer="4300" to-port="2"/>
		<edge from-layer="4300" from-port="3" to-layer="4302" to-port="0"/>
		<edge from-layer="4301" from-port="0" to-layer="4302" to-port="1"/>
		<edge from-layer="4302" from-port="2" to-layer="4303" to-port="0"/>
		<edge from-layer="4285" from-port="1" to-layer="4303" to-port="1"/>
		<edge from-layer="4303" from-port="2" to-layer="4305" to-port="0"/>
		<edge from-layer="4304" from-port="0" to-layer="4305" to-port="1"/>
		<edge from-layer="4305" from-port="2" to-layer="4306" to-port="0"/>
		<edge from-layer="4294" from-port="2" to-layer="4308" to-port="0"/>
		<edge from-layer="4307" from-port="0" to-layer="4308" to-port="1"/>
		<edge from-layer="4309" from-port="0" to-layer="4310" to-port="0"/>
		<edge from-layer="4308" from-port="2" to-layer="4311" to-port="0"/>
		<edge from-layer="4310" from-port="1" to-layer="4311" to-port="1"/>
		<edge from-layer="4306" from-port="1" to-layer="4312" to-port="0"/>
		<edge from-layer="4311" from-port="2" to-layer="4312" to-port="1"/>
		<edge from-layer="4312" from-port="2" to-layer="4314" to-port="0"/>
		<edge from-layer="4313" from-port="0" to-layer="4314" to-port="1"/>
		<edge from-layer="4294" from-port="2" to-layer="4315" to-port="0"/>
		<edge from-layer="4314" from-port="2" to-layer="4315" to-port="1"/>
		<edge from-layer="4315" from-port="2" to-layer="4317" to-port="0"/>
		<edge from-layer="4316" from-port="0" to-layer="4317" to-port="1"/>
		<edge from-layer="4284" from-port="4" to-layer="4319" to-port="0"/>
		<edge from-layer="4318" from-port="0" to-layer="4319" to-port="1"/>
		<edge from-layer="4319" from-port="2" to-layer="4321" to-port="0"/>
		<edge from-layer="4320" from-port="0" to-layer="4321" to-port="1"/>
		<edge from-layer="4321" from-port="2" to-layer="4323" to-port="0"/>
		<edge from-layer="4322" from-port="0" to-layer="4323" to-port="1"/>
		<edge from-layer="4324" from-port="0" to-layer="4325" to-port="0"/>
		<edge from-layer="4326" from-port="0" to-layer="4327" to-port="0"/>
		<edge from-layer="4317" from-port="2" to-layer="4329" to-port="0"/>
		<edge from-layer="4323" from-port="2" to-layer="4329" to-port="1"/>
		<edge from-layer="4328" from-port="0" to-layer="4329" to-port="2"/>
		<edge from-layer="4325" from-port="1" to-layer="4329" to-port="3"/>
		<edge from-layer="4327" from-port="1" to-layer="4329" to-port="4"/>
		<edge from-layer="4329" from-port="5" to-layer="4334" to-port="0"/>
		<edge from-layer="4332" from-port="0" to-layer="4334" to-port="1"/>
		<edge from-layer="4333" from-port="0" to-layer="4334" to-port="2"/>
		<edge from-layer="4334" from-port="3" to-layer="4336" to-port="0"/>
		<edge from-layer="4335" from-port="0" to-layer="4336" to-port="1"/>
		<edge from-layer="4336" from-port="2" to-layer="4337" to-port="0"/>
		<edge from-layer="4337" from-port="1" to-layer="4338" to-port="0"/>
		<edge from-layer="4294" from-port="2" to-layer="4340" to-port="0"/>
		<edge from-layer="4338" from-port="1" to-layer="4340" to-port="1"/>
		<edge from-layer="4339" from-port="0" to-layer="4340" to-port="2"/>
		<edge from-layer="4336" from-port="2" to-layer="4341" to-port="0"/>
		<edge from-layer="4341" from-port="1" to-layer="4342" to-port="0"/>
		<edge from-layer="4315" from-port="2" to-layer="4344" to-port="0"/>
		<edge from-layer="4342" from-port="1" to-layer="4344" to-port="1"/>
		<edge from-layer="4343" from-port="0" to-layer="4344" to-port="2"/>
		<edge from-layer="4336" from-port="2" to-layer="4345" to-port="0"/>
		<edge from-layer="4345" from-port="1" to-layer="4346" to-port="0"/>
		<edge from-layer="4319" from-port="2" to-layer="4348" to-port="0"/>
		<edge from-layer="4346" from-port="1" to-layer="4348" to-port="1"/>
		<edge from-layer="4347" from-port="0" to-layer="4348" to-port="2"/>
		<edge from-layer="4348" from-port="3" to-layer="4350" to-port="0"/>
		<edge from-layer="4349" from-port="0" to-layer="4350" to-port="1"/>
		<edge from-layer="4344" from-port="3" to-layer="4351" to-port="0"/>
		<edge from-layer="4350" from-port="2" to-layer="4351" to-port="1"/>
		<edge from-layer="4351" from-port="2" to-layer="4354" to-port="0"/>
		<edge from-layer="4352" from-port="0" to-layer="4354" to-port="1"/>
		<edge from-layer="4353" from-port="0" to-layer="4354" to-port="2"/>
		<edge from-layer="4354" from-port="3" to-layer="4356" to-port="0"/>
		<edge from-layer="4355" from-port="0" to-layer="4356" to-port="1"/>
		<edge from-layer="4340" from-port="3" to-layer="4357" to-port="0"/>
		<edge from-layer="4356" from-port="2" to-layer="4357" to-port="1"/>
		<edge from-layer="4336" from-port="2" to-layer="4358" to-port="0"/>
		<edge from-layer="4358" from-port="1" to-layer="4359" to-port="0"/>
		<edge from-layer="4305" from-port="2" to-layer="4361" to-port="0"/>
		<edge from-layer="4359" from-port="1" to-layer="4361" to-port="1"/>
		<edge from-layer="4360" from-port="0" to-layer="4361" to-port="2"/>
		<edge from-layer="4361" from-port="3" to-layer="4362" to-port="0"/>
		<edge from-layer="4362" from-port="1" to-layer="4364" to-port="0"/>
		<edge from-layer="4363" from-port="0" to-layer="4364" to-port="1"/>
		<edge from-layer="4357" from-port="2" to-layer="4365" to-port="0"/>
		<edge from-layer="4364" from-port="2" to-layer="4365" to-port="1"/>
		<edge from-layer="4365" from-port="2" to-layer="4369" to-port="0"/>
		<edge from-layer="4366" from-port="0" to-layer="4369" to-port="1"/>
		<edge from-layer="4367" from-port="0" to-layer="4369" to-port="2"/>
		<edge from-layer="4368" from-port="0" to-layer="4369" to-port="3"/>
		<edge from-layer="4365" from-port="2" to-layer="4374" to-port="0"/>
		<edge from-layer="4372" from-port="0" to-layer="4374" to-port="1"/>
		<edge from-layer="4373" from-port="0" to-layer="4374" to-port="2"/>
		<edge from-layer="4374" from-port="3" to-layer="4375" to-port="0"/>
		<edge from-layer="4375" from-port="1" to-layer="4376" to-port="0"/>
		<edge from-layer="4371" from-port="0" to-layer="4376" to-port="1"/>
		<edge from-layer="4369" from-port="4" to-layer="4381" to-port="0"/>
		<edge from-layer="4378" from-port="0" to-layer="4381" to-port="1"/>
		<edge from-layer="4379" from-port="0" to-layer="4381" to-port="2"/>
		<edge from-layer="4380" from-port="0" to-layer="4381" to-port="3"/>
		<edge from-layer="4381" from-port="4" to-layer="4385" to-port="0"/>
		<edge from-layer="4382" from-port="0" to-layer="4385" to-port="1"/>
		<edge from-layer="4383" from-port="0" to-layer="4385" to-port="2"/>
		<edge from-layer="4384" from-port="0" to-layer="4385" to-port="3"/>
		<edge from-layer="4385" from-port="4" to-layer="4387" to-port="0"/>
		<edge from-layer="4386" from-port="0" to-layer="4387" to-port="1"/>
		<edge from-layer="4388" from-port="0" to-layer="4389" to-port="0"/>
		<edge from-layer="4387" from-port="2" to-layer="4392" to-port="0"/>
		<edge from-layer="4390" from-port="0" to-layer="4392" to-port="1"/>
		<edge from-layer="4391" from-port="0" to-layer="4392" to-port="2"/>
		<edge from-layer="4389" from-port="1" to-layer="4392" to-port="3"/>
		<edge from-layer="4392" from-port="4" to-layer="4396" to-port="0"/>
		<edge from-layer="4393" from-port="0" to-layer="4396" to-port="1"/>
		<edge from-layer="4394" from-port="0" to-layer="4396" to-port="2"/>
		<edge from-layer="4395" from-port="0" to-layer="4396" to-port="3"/>
		<edge from-layer="4396" from-port="4" to-layer="4397" to-port="0"/>
		<edge from-layer="3108" from-port="2" to-layer="4397" to-port="1"/>
		<edge from-layer="3218" from-port="2" to-layer="4397" to-port="2"/>
		<edge from-layer="3320" from-port="2" to-layer="4397" to-port="3"/>
		<edge from-layer="2968" from-port="2" to-layer="4397" to-port="4"/>
		<edge from-layer="4397" from-port="5" to-layer="4423" to-port="0"/>
		<edge from-layer="4419" from-port="0" to-layer="4423" to-port="1"/>
		<edge from-layer="4420" from-port="0" to-layer="4423" to-port="2"/>
		<edge from-layer="4421" from-port="0" to-layer="4423" to-port="3"/>
		<edge from-layer="4422" from-port="0" to-layer="4423" to-port="4"/>
		<edge from-layer="4425" from-port="0" to-layer="4426" to-port="0"/>
		<edge from-layer="4426" from-port="1" to-layer="4427" to-port="0"/>
		<edge from-layer="4424" from-port="0" to-layer="4427" to-port="1"/>
		<edge from-layer="4423" from-port="5" to-layer="4428" to-port="0"/>
		<edge from-layer="4427" from-port="2" to-layer="4428" to-port="1"/>
		<edge from-layer="4429" from-port="0" to-layer="4430" to-port="0"/>
		<edge from-layer="4428" from-port="2" to-layer="4431" to-port="0"/>
		<edge from-layer="4430" from-port="1" to-layer="4431" to-port="1"/>
		<edge from-layer="4431" from-port="2" to-layer="4432" to-port="0"/>
		<edge from-layer="4432" from-port="1" to-layer="4433" to-port="0"/>
		<edge from-layer="4415" from-port="0" to-layer="4433" to-port="1"/>
		<edge from-layer="4416" from-port="0" to-layer="4433" to-port="2"/>
		<edge from-layer="4417" from-port="0" to-layer="4433" to-port="3"/>
		<edge from-layer="4418" from-port="0" to-layer="4433" to-port="4"/>
		<edge from-layer="4435" from-port="0" to-layer="4436" to-port="0"/>
		<edge from-layer="4436" from-port="1" to-layer="4437" to-port="0"/>
		<edge from-layer="4434" from-port="0" to-layer="4437" to-port="1"/>
		<edge from-layer="4433" from-port="5" to-layer="4438" to-port="0"/>
		<edge from-layer="4437" from-port="2" to-layer="4438" to-port="1"/>
		<edge from-layer="4439" from-port="0" to-layer="4440" to-port="0"/>
		<edge from-layer="4438" from-port="2" to-layer="4441" to-port="0"/>
		<edge from-layer="4440" from-port="1" to-layer="4441" to-port="1"/>
		<edge from-layer="4441" from-port="2" to-layer="4442" to-port="0"/>
		<edge from-layer="4442" from-port="1" to-layer="4443" to-port="0"/>
		<edge from-layer="4411" from-port="0" to-layer="4443" to-port="1"/>
		<edge from-layer="4412" from-port="0" to-layer="4443" to-port="2"/>
		<edge from-layer="4413" from-port="0" to-layer="4443" to-port="3"/>
		<edge from-layer="4414" from-port="0" to-layer="4443" to-port="4"/>
		<edge from-layer="4445" from-port="0" to-layer="4446" to-port="0"/>
		<edge from-layer="4446" from-port="1" to-layer="4447" to-port="0"/>
		<edge from-layer="4444" from-port="0" to-layer="4447" to-port="1"/>
		<edge from-layer="4443" from-port="5" to-layer="4448" to-port="0"/>
		<edge from-layer="4447" from-port="2" to-layer="4448" to-port="1"/>
		<edge from-layer="4449" from-port="0" to-layer="4450" to-port="0"/>
		<edge from-layer="4448" from-port="2" to-layer="4451" to-port="0"/>
		<edge from-layer="4450" from-port="1" to-layer="4451" to-port="1"/>
		<edge from-layer="4451" from-port="2" to-layer="4452" to-port="0"/>
		<edge from-layer="4452" from-port="1" to-layer="4453" to-port="0"/>
		<edge from-layer="4407" from-port="0" to-layer="4453" to-port="1"/>
		<edge from-layer="4408" from-port="0" to-layer="4453" to-port="2"/>
		<edge from-layer="4409" from-port="0" to-layer="4453" to-port="3"/>
		<edge from-layer="4410" from-port="0" to-layer="4453" to-port="4"/>
		<edge from-layer="4455" from-port="0" to-layer="4456" to-port="0"/>
		<edge from-layer="4456" from-port="1" to-layer="4457" to-port="0"/>
		<edge from-layer="4454" from-port="0" to-layer="4457" to-port="1"/>
		<edge from-layer="4453" from-port="5" to-layer="4458" to-port="0"/>
		<edge from-layer="4457" from-port="2" to-layer="4458" to-port="1"/>
		<edge from-layer="4459" from-port="0" to-layer="4460" to-port="0"/>
		<edge from-layer="4458" from-port="2" to-layer="4461" to-port="0"/>
		<edge from-layer="4460" from-port="1" to-layer="4461" to-port="1"/>
		<edge from-layer="4461" from-port="2" to-layer="4462" to-port="0"/>
		<edge from-layer="4462" from-port="1" to-layer="4463" to-port="0"/>
		<edge from-layer="4403" from-port="0" to-layer="4463" to-port="1"/>
		<edge from-layer="4404" from-port="0" to-layer="4463" to-port="2"/>
		<edge from-layer="4405" from-port="0" to-layer="4463" to-port="3"/>
		<edge from-layer="4406" from-port="0" to-layer="4463" to-port="4"/>
		<edge from-layer="4465" from-port="0" to-layer="4466" to-port="0"/>
		<edge from-layer="4466" from-port="1" to-layer="4467" to-port="0"/>
		<edge from-layer="4464" from-port="0" to-layer="4467" to-port="1"/>
		<edge from-layer="4463" from-port="5" to-layer="4468" to-port="0"/>
		<edge from-layer="4467" from-port="2" to-layer="4468" to-port="1"/>
		<edge from-layer="4469" from-port="0" to-layer="4470" to-port="0"/>
		<edge from-layer="4468" from-port="2" to-layer="4471" to-port="0"/>
		<edge from-layer="4470" from-port="1" to-layer="4471" to-port="1"/>
		<edge from-layer="4471" from-port="2" to-layer="4472" to-port="0"/>
		<edge from-layer="4472" from-port="1" to-layer="4473" to-port="0"/>
		<edge from-layer="4399" from-port="0" to-layer="4473" to-port="1"/>
		<edge from-layer="4400" from-port="0" to-layer="4473" to-port="2"/>
		<edge from-layer="4401" from-port="0" to-layer="4473" to-port="3"/>
		<edge from-layer="4402" from-port="0" to-layer="4473" to-port="4"/>
		<edge from-layer="4475" from-port="0" to-layer="4476" to-port="0"/>
		<edge from-layer="4476" from-port="1" to-layer="4477" to-port="0"/>
		<edge from-layer="4474" from-port="0" to-layer="4477" to-port="1"/>
		<edge from-layer="4473" from-port="5" to-layer="4478" to-port="0"/>
		<edge from-layer="4477" from-port="2" to-layer="4478" to-port="1"/>
		<edge from-layer="4479" from-port="0" to-layer="4480" to-port="0"/>
		<edge from-layer="4478" from-port="2" to-layer="4481" to-port="0"/>
		<edge from-layer="4480" from-port="1" to-layer="4481" to-port="1"/>
		<edge from-layer="4481" from-port="2" to-layer="4482" to-port="0"/>
		<edge from-layer="4482" from-port="1" to-layer="4486" to-port="0"/>
		<edge from-layer="4483" from-port="0" to-layer="4486" to-port="1"/>
		<edge from-layer="4484" from-port="0" to-layer="4486" to-port="2"/>
		<edge from-layer="4485" from-port="0" to-layer="4486" to-port="3"/>
		<edge from-layer="4486" from-port="4" to-layer="4488" to-port="0"/>
		<edge from-layer="4487" from-port="0" to-layer="4488" to-port="1"/>
		<edge from-layer="4488" from-port="2" to-layer="4490" to-port="0"/>
		<edge from-layer="4489" from-port="0" to-layer="4490" to-port="1"/>
		<edge from-layer="4481" from-port="2" to-layer="4491" to-port="0"/>
		<edge from-layer="4490" from-port="2" to-layer="4491" to-port="1"/>
		<edge from-layer="4482" from-port="1" to-layer="4494" to-port="0"/>
		<edge from-layer="4492" from-port="0" to-layer="4494" to-port="1"/>
		<edge from-layer="4493" from-port="0" to-layer="4494" to-port="2"/>
		<edge from-layer="4497" from-port="0" to-layer="4498" to-port="0"/>
		<edge from-layer="4376" from-port="2" to-layer="4499" to-port="0"/>
		<edge from-layer="4499" from-port="1" to-layer="4502" to-port="0"/>
		<edge from-layer="4500" from-port="0" to-layer="4502" to-port="1"/>
		<edge from-layer="4501" from-port="0" to-layer="4502" to-port="2"/>
		<edge from-layer="4502" from-port="3" to-layer="4504" to-port="0"/>
		<edge from-layer="4503" from-port="0" to-layer="4504" to-port="1"/>
		<edge from-layer="4498" from-port="1" to-layer="4505" to-port="0"/>
		<edge from-layer="4504" from-port="2" to-layer="4505" to-port="1"/>
		<edge from-layer="4505" from-port="2" to-layer="4506" to-port="0"/>
		<edge from-layer="4506" from-port="1" to-layer="4507" to-port="0"/>
		<edge from-layer="4496" from-port="0" to-layer="4507" to-port="1"/>
		<edge from-layer="4507" from-port="2" to-layer="4508" to-port="0"/>
		<edge from-layer="4495" from-port="0" to-layer="4508" to-port="1"/>
		<edge from-layer="4508" from-port="2" to-layer="4509" to-port="0"/>
		<edge from-layer="4494" from-port="3" to-layer="4509" to-port="1"/>
		<edge from-layer="4376" from-port="2" to-layer="4510" to-port="0"/>
		<edge from-layer="4509" from-port="2" to-layer="4510" to-port="1"/>
		<edge from-layer="4510" from-port="2" to-layer="4511" to-port="0"/>
		<edge from-layer="4491" from-port="2" to-layer="4513" to-port="0"/>
		<edge from-layer="4511" from-port="1" to-layer="4513" to-port="1"/>
		<edge from-layer="4512" from-port="0" to-layer="4513" to-port="2"/>
		<edge from-layer="4482" from-port="1" to-layer="4517" to-port="0"/>
		<edge from-layer="4515" from-port="0" to-layer="4517" to-port="1"/>
		<edge from-layer="4516" from-port="0" to-layer="4517" to-port="2"/>
		<edge from-layer="4514" from-port="0" to-layer="4518" to-port="0"/>
		<edge from-layer="4517" from-port="3" to-layer="4518" to-port="1"/>
		<edge from-layer="4513" from-port="3" to-layer="4519" to-port="0"/>
		<edge from-layer="4518" from-port="2" to-layer="4519" to-port="1"/>
		<edge from-layer="4510" from-port="2" to-layer="4520" to-port="0"/>
		<edge from-layer="4482" from-port="1" to-layer="4523" to-port="0"/>
		<edge from-layer="4521" from-port="0" to-layer="4523" to-port="1"/>
		<edge from-layer="4522" from-port="0" to-layer="4523" to-port="2"/>
		<edge from-layer="4520" from-port="1" to-layer="4524" to-port="0"/>
		<edge from-layer="4523" from-port="3" to-layer="4524" to-port="1"/>
		<edge from-layer="4519" from-port="2" to-layer="4525" to-port="0"/>
		<edge from-layer="4524" from-port="2" to-layer="4525" to-port="1"/>
		<edge from-layer="4525" from-port="2" to-layer="4526" to-port="0"/>
		<edge from-layer="4369" from-port="4" to-layer="4370" to-port="0"/>
		<edge from-layer="4376" from-port="2" to-layer="4377" to-port="0"/>
		<edge from-layer="4526" from-port="1" to-layer="4527" to-port="0"/>
	</edges>
	<meta_data>
		<MO_version value="custom_HEAD_0e242b324458ed332f0907ac6d88fc24b610d9b9"/>
		<Runtime_version value="2022.3.0-000-0e242b32445-HEAD"/>
		<legacy_path value="True"/>
		<cli_parameters>
			<caffe_parser_path value="DIR"/>
			<data_type value="FP16"/>
			<disable_nhwc_to_nchw value="False"/>
			<disable_omitting_optional value="False"/>
			<disable_resnet_optimization value="False"/>
			<disable_weights_compression value="False"/>
			<enable_concat_optimization value="False"/>
			<enable_flattening_nested_params value="False"/>
			<enable_ssd_gluoncv value="False"/>
			<extensions value="['/opt/home/sys_k8sworker/workspace/DL-Benchmark/try/convert']"/>
			<framework value="onnx"/>
			<input value="image"/>
			<input_model value="DIR/model.onnx"/>
			<input_model_is_text value="False"/>
			<input_shape value="[1,3,608,608]"/>
			<k value="DIR/CustomLayersMapping.xml"/>
			<layout value="image(nchw)"/>
			<legacy_mxnet_model value="False"/>
			<log_level value="ERROR"/>
			<mean_values value="image[103.53,116.28,123.675]"/>
			<model_name value="instance-segmentation-security-1040"/>
			<output value="boxes,labels,masks"/>
			<output_dir value="DIR"/>
			<progress value="False"/>
			<remove_memory value="False"/>
			<remove_output_softmax value="False"/>
			<reverse_input_channels value="False"/>
			<save_params_from_nd value="False"/>
			<scale_values value="()"/>
			<silent value="True"/>
			<source_layout value="()"/>
			<static_shape value="False"/>
			<stream_output value="False"/>
			<target_layout value="()"/>
			<transform value=""/>
			<use_legacy_frontend value="False"/>
			<use_new_frontend value="False"/>
			<unset unset_cli_parameters="batch, counts, disable_fusing, finegrain_fusing, freeze_placeholder_with_value, input_checkpoint, input_meta_graph, input_proto, input_symbol, mean_file, mean_file_offsets, nd_prefix_name, pretrained_model_name, saved_model_dir, saved_model_tags, scale, tensorboard_logdir, tensorflow_custom_layer_libraries, tensorflow_custom_operations_config_update, tensorflow_object_detection_api_pipeline_config, tensorflow_use_custom_operations_config, transformations_config"/>
		</cli_parameters>
	</meta_data>
	<quantization_parameters>
		<config>{
		'compression': {
			'algorithms': [
				{
					'name': 'DefaultQuantization',
					'params': {
						'num_samples_for_tuning': 2000,
						'preset': 'performance',
						'stat_subset_size': 300,
						'use_layerwise_tuning': false
					}
				}
			],
			'dump_intermediate_model': true,
			'target_device': 'ANY'
		},
		'engine': {
			'models': [
				{
					'name': 'instance-segmentation-security-1040',
					'launchers': [
						{
							'framework': 'openvino',
							'adapter': {
								'type': 'mask_rcnn',
								'classes_out': 'labels',
								'boxes_out': 'boxes',
								'raw_masks_out': 'masks'
							},
							'device': 'cpu'
						}
					],
					'datasets': [
						{
							'name': 'ms_coco_mask_rcnn_short_80_classes_without_background',
							'annotation_conversion': {
								'converter': 'mscoco_mask_rcnn',
								'annotation_file': 'PATH',
								'has_background': false,
								'sort_annotations': true
							},
							'annotation': 'PATH',
							'dataset_meta': 'PATH',
							'data_source': 'PATH',
							'preprocessing': [
								{
									'type': 'resize',
									'dst_width': 608,
									'dst_height': 608
								}
							],
							'metrics': [
								{
									'name': 'AP@masks',
									'type': 'coco_orig_segm_precision',
									'reference': 0.312
								},
								{
									'name': 'AP@boxes',
									'type': 'coco_orig_precision',
									'reference': 0.35
								}
							],
							'_command_line_mapping': {
								'annotation_file': 'PATH'
							}
						}
					]
				}
			],
			'stat_requests_number': null,
			'eval_requests_number': null,
			'type': 'accuracy_checker'
		}
	}</config>
		<version value="invalid version"/>
		<cli_params value="{'quantize': None, 'preset': None, 'model': None, 'weights': None, 'name': None, 'engine': None, 'ac_config': None, 'max_drop': None, 'evaluate': False, 'output_dir': 'PATH', 'direct_dump': True, 'log_level': 'INFO', 'pbar': False, 'stream_output': False, 'keep_uncompressed_weights': False, 'data_source': None}"/>
	</quantization_parameters>
</net>
